Operation((%0) = "cinn_op.group" () -> tensor<-1x-1x18385xf32> {
    (%1) = "pd_op.conv2d" (%2, %3) {__l_trt__:true,data_format:"NCHW",dilations:[1,1],groups:1,padding_algorithm:"EXPLICIT",paddings:[1,1],stop_gradient:[false],strides:[2,2],struct_name:"/PPHGNetV2/StemBlock/ConvBNAct/Conv2D/"} : (tensor<-1x3x48x-1xf32>, tensor<32x3x3x3xf32>) -> tensor<-1x32x24x-1xf32>
    (%4, %5, %6, %7, %8, %9) = "pd_op.batch_norm_" (%1, %10, %11, %12, %13) {__l_trt__:true,data_format:"NCHW",epsilon:1e-05,is_test:true,momentum:0.9,stop_gradient:[false,false,false,false,false,false],struct_name:"/PPHGNetV2/StemBlock/ConvBNAct/BatchNorm2D/",trainable_statistics:false,use_global_stats:true} : (tensor<-1x32x24x-1xf32>, tensor<32xf32>, tensor<32xf32>, tensor<32xf32>, tensor<32xf32>) -> tensor<-1x32x24x-1xf32>, tensor<32xf32>, tensor<32xf32>, tensor<32xf32>, tensor<32xf32>, tensor<-1xu8>
    (%14) = "pd_op.relu" (%4) {__l_trt__:true,stop_gradient:[false],struct_name:"/PPHGNetV2/StemBlock/ConvBNAct/ReLU/"} : (tensor<-1x32x24x-1xf32>) -> tensor<-1x32x24x-1xf32>
    (%15) = "pd_op.conv2d" (%14, %16) {__l_trt__:true,data_format:"NCHW",dilations:[1,1],groups:1,padding_algorithm:"SAME",paddings:[0,0],stop_gradient:[false],strides:[1,1],struct_name:"/PPHGNetV2/StemBlock/ConvBNAct_1/Conv2D/"} : (tensor<-1x32x24x-1xf32>, tensor<16x32x2x2xf32>) -> tensor<-1x16x24x-1xf32>
    (%17, %18, %19, %20, %21, %22) = "pd_op.batch_norm_" (%15, %23, %24, %25, %26) {__l_trt__:true,data_format:"NCHW",epsilon:1e-05,is_test:true,momentum:0.9,stop_gradient:[false,false,false,false,false,false],struct_name:"/PPHGNetV2/StemBlock/ConvBNAct_1/BatchNorm2D/",trainable_statistics:false,use_global_stats:true} : (tensor<-1x16x24x-1xf32>, tensor<16xf32>, tensor<16xf32>, tensor<16xf32>, tensor<16xf32>) -> tensor<-1x16x24x-1xf32>, tensor<16xf32>, tensor<16xf32>, tensor<16xf32>, tensor<16xf32>, tensor<-1xu8>
    (%27) = "pd_op.relu" (%17) {__l_trt__:true,stop_gradient:[false],struct_name:"/PPHGNetV2/StemBlock/ConvBNAct_1/ReLU/"} : (tensor<-1x16x24x-1xf32>) -> tensor<-1x16x24x-1xf32>
    (%28) = "pd_op.conv2d" (%27, %29) {__l_trt__:true,data_format:"NCHW",dilations:[1,1],groups:1,padding_algorithm:"SAME",paddings:[0,0],stop_gradient:[false],strides:[1,1],struct_name:"/PPHGNetV2/StemBlock/ConvBNAct_2/Conv2D/"} : (tensor<-1x16x24x-1xf32>, tensor<32x16x2x2xf32>) -> tensor<-1x32x24x-1xf32>
    (%30, %31, %32, %33, %34, %35) = "pd_op.batch_norm_" (%28, %36, %37, %38, %39) {__l_trt__:true,data_format:"NCHW",epsilon:1e-05,is_test:true,momentum:0.9,stop_gradient:[false,false,false,false,false,false],struct_name:"/PPHGNetV2/StemBlock/ConvBNAct_2/BatchNorm2D/",trainable_statistics:false,use_global_stats:true} : (tensor<-1x32x24x-1xf32>, tensor<32xf32>, tensor<32xf32>, tensor<32xf32>, tensor<32xf32>) -> tensor<-1x32x24x-1xf32>, tensor<32xf32>, tensor<32xf32>, tensor<32xf32>, tensor<32xf32>, tensor<-1xu8>
    (%40) = "pd_op.relu" (%30) {__l_trt__:true,stop_gradient:[false],struct_name:"/PPHGNetV2/StemBlock/ConvBNAct_2/ReLU/"} : (tensor<-1x32x24x-1xf32>) -> tensor<-1x32x24x-1xf32>
    (%41) = "pd_op.pool2d" (%14, %42) {__l_trt__:true,adaptive:false,ceil_mode:true,data_format:"NCHW",exclusive:true,global_pooling:false,padding_algorithm:"SAME",paddings:[0,0],pooling_type:"max",stop_gradient:[false],strides:[1,1],struct_name:"/PPHGNetV2/StemBlock/MaxPool2D/"} : (tensor<-1x32x24x-1xf32>, tensor<2xi64>) -> tensor<-1x32x24x-1xf32>
    (%43) = "builtin.combine" (%41, %40) {__l_trt__:true,stop_gradient:[false],struct_name:"/PPHGNetV2/StemBlock/"} : (tensor<-1x32x24x-1xf32>, tensor<-1x32x24x-1xf32>) -> vec[tensor<-1x32x24x-1xf32>,tensor<-1x32x24x-1xf32>]
    (%44) = "pd_op.concat" (%43, %45) {__l_trt__:true,stop_gradient:[false],struct_name:"/PPHGNetV2/StemBlock/"} : (vec[tensor<-1x32x24x-1xf32>,tensor<-1x32x24x-1xf32>], tensor<1xi32>) -> tensor<-1x64x24x-1xf32>
    (%46) = "pd_op.conv2d" (%44, %47) {__l_trt__:true,data_format:"NCHW",dilations:[1,1],groups:1,padding_algorithm:"EXPLICIT",paddings:[1,1],stop_gradient:[false],strides:[1,1],struct_name:"/PPHGNetV2/StemBlock/ConvBNAct_3/Conv2D/"} : (tensor<-1x64x24x-1xf32>, tensor<32x64x3x3xf32>) -> tensor<-1x32x24x-1xf32>
    (%48, %49, %50, %51, %52, %53) = "pd_op.batch_norm_" (%46, %54, %55, %56, %57) {__l_trt__:true,data_format:"NCHW",epsilon:1e-05,is_test:true,momentum:0.9,stop_gradient:[false,false,false,false,false,false],struct_name:"/PPHGNetV2/StemBlock/ConvBNAct_3/BatchNorm2D/",trainable_statistics:false,use_global_stats:true} : (tensor<-1x32x24x-1xf32>, tensor<32xf32>, tensor<32xf32>, tensor<32xf32>, tensor<32xf32>) -> tensor<-1x32x24x-1xf32>, tensor<32xf32>, tensor<32xf32>, tensor<32xf32>, tensor<32xf32>, tensor<-1xu8>
    (%58) = "pd_op.relu" (%48) {__l_trt__:true,stop_gradient:[false],struct_name:"/PPHGNetV2/StemBlock/ConvBNAct_3/ReLU/"} : (tensor<-1x32x24x-1xf32>) -> tensor<-1x32x24x-1xf32>
    (%59) = "pd_op.conv2d" (%58, %60) {__l_trt__:true,data_format:"NCHW",dilations:[1,1],groups:1,padding_algorithm:"EXPLICIT",paddings:[0,0],stop_gradient:[false],strides:[1,1],struct_name:"/PPHGNetV2/StemBlock/ConvBNAct_4/Conv2D/"} : (tensor<-1x32x24x-1xf32>, tensor<48x32x1x1xf32>) -> tensor<-1x48x24x-1xf32>
    (%61, %62, %63, %64, %65, %66) = "pd_op.batch_norm_" (%59, %67, %68, %69, %70) {__l_trt__:true,data_format:"NCHW",epsilon:1e-05,is_test:true,momentum:0.9,stop_gradient:[false,false,false,false,false,false],struct_name:"/PPHGNetV2/StemBlock/ConvBNAct_4/BatchNorm2D/",trainable_statistics:false,use_global_stats:true} : (tensor<-1x48x24x-1xf32>, tensor<48xf32>, tensor<48xf32>, tensor<48xf32>, tensor<48xf32>) -> tensor<-1x48x24x-1xf32>, tensor<48xf32>, tensor<48xf32>, tensor<48xf32>, tensor<48xf32>, tensor<-1xu8>
    (%71) = "pd_op.relu" (%61) {__l_trt__:true,stop_gradient:[false],struct_name:"/PPHGNetV2/StemBlock/ConvBNAct_4/ReLU/"} : (tensor<-1x48x24x-1xf32>) -> tensor<-1x48x24x-1xf32>
    (%72) = "pd_op.depthwise_conv2d" (%71, %73) {__l_trt__:true,data_format:"NCHW",dilations:[1,1],groups:48,padding_algorithm:"EXPLICIT",paddings:[1,1],stop_gradient:[false],strides:[2,1],struct_name:"/PPHGNetV2/HGV2_Stage/ConvBNAct/Conv2D/"} : (tensor<-1x48x24x-1xf32>, tensor<48x1x3x3xf32>) -> tensor<-1x48x12x-1xf32>
    (%74, %75, %76, %77, %78, %79) = "pd_op.batch_norm_" (%72, %80, %81, %82, %83) {__l_trt__:true,data_format:"NCHW",epsilon:1e-05,is_test:true,momentum:0.9,stop_gradient:[false,false,false,false,false,false],struct_name:"/PPHGNetV2/HGV2_Stage/ConvBNAct/BatchNorm2D/",trainable_statistics:false,use_global_stats:true} : (tensor<-1x48x12x-1xf32>, tensor<48xf32>, tensor<48xf32>, tensor<48xf32>, tensor<48xf32>) -> tensor<-1x48x12x-1xf32>, tensor<48xf32>, tensor<48xf32>, tensor<48xf32>, tensor<48xf32>, tensor<-1xu8>
    (%84) = "pd_op.conv2d" (%74, %85) {__l_trt__:true,data_format:"NCHW",dilations:[1,1],groups:1,padding_algorithm:"EXPLICIT",paddings:[1,1],stop_gradient:[false],strides:[1,1],struct_name:"/PPHGNetV2/HGV2_Stage/Sequential/HGV2_Block/ConvBNAct/Conv2D/"} : (tensor<-1x48x12x-1xf32>, tensor<48x48x3x3xf32>) -> tensor<-1x48x12x-1xf32>
    (%86, %87, %88, %89, %90, %91) = "pd_op.batch_norm_" (%84, %92, %93, %94, %95) {__l_trt__:true,data_format:"NCHW",epsilon:1e-05,is_test:true,momentum:0.9,stop_gradient:[false,false,false,false,false,false],struct_name:"/PPHGNetV2/HGV2_Stage/Sequential/HGV2_Block/ConvBNAct/BatchNorm2D/",trainable_statistics:false,use_global_stats:true} : (tensor<-1x48x12x-1xf32>, tensor<48xf32>, tensor<48xf32>, tensor<48xf32>, tensor<48xf32>) -> tensor<-1x48x12x-1xf32>, tensor<48xf32>, tensor<48xf32>, tensor<48xf32>, tensor<48xf32>, tensor<-1xu8>
    (%96) = "pd_op.relu" (%86) {__l_trt__:true,stop_gradient:[false],struct_name:"/PPHGNetV2/HGV2_Stage/Sequential/HGV2_Block/ConvBNAct/ReLU/"} : (tensor<-1x48x12x-1xf32>) -> tensor<-1x48x12x-1xf32>
    (%97) = "pd_op.conv2d" (%96, %98) {__l_trt__:true,data_format:"NCHW",dilations:[1,1],groups:1,padding_algorithm:"EXPLICIT",paddings:[1,1],stop_gradient:[false],strides:[1,1],struct_name:"/PPHGNetV2/HGV2_Stage/Sequential/HGV2_Block/ConvBNAct_1/Conv2D/"} : (tensor<-1x48x12x-1xf32>, tensor<48x48x3x3xf32>) -> tensor<-1x48x12x-1xf32>
    (%99, %100, %101, %102, %103, %104) = "pd_op.batch_norm_" (%97, %105, %106, %107, %108) {__l_trt__:true,data_format:"NCHW",epsilon:1e-05,is_test:true,momentum:0.9,stop_gradient:[false,false,false,false,false,false],struct_name:"/PPHGNetV2/HGV2_Stage/Sequential/HGV2_Block/ConvBNAct_1/BatchNorm2D/",trainable_statistics:false,use_global_stats:true} : (tensor<-1x48x12x-1xf32>, tensor<48xf32>, tensor<48xf32>, tensor<48xf32>, tensor<48xf32>) -> tensor<-1x48x12x-1xf32>, tensor<48xf32>, tensor<48xf32>, tensor<48xf32>, tensor<48xf32>, tensor<-1xu8>
    (%109) = "pd_op.relu" (%99) {__l_trt__:true,stop_gradient:[false],struct_name:"/PPHGNetV2/HGV2_Stage/Sequential/HGV2_Block/ConvBNAct_1/ReLU/"} : (tensor<-1x48x12x-1xf32>) -> tensor<-1x48x12x-1xf32>
    (%110) = "pd_op.conv2d" (%109, %111) {__l_trt__:true,data_format:"NCHW",dilations:[1,1],groups:1,padding_algorithm:"EXPLICIT",paddings:[1,1],stop_gradient:[false],strides:[1,1],struct_name:"/PPHGNetV2/HGV2_Stage/Sequential/HGV2_Block/ConvBNAct_2/Conv2D/"} : (tensor<-1x48x12x-1xf32>, tensor<48x48x3x3xf32>) -> tensor<-1x48x12x-1xf32>
    (%112, %113, %114, %115, %116, %117) = "pd_op.batch_norm_" (%110, %118, %119, %120, %121) {__l_trt__:true,data_format:"NCHW",epsilon:1e-05,is_test:true,momentum:0.9,stop_gradient:[false,false,false,false,false,false],struct_name:"/PPHGNetV2/HGV2_Stage/Sequential/HGV2_Block/ConvBNAct_2/BatchNorm2D/",trainable_statistics:false,use_global_stats:true} : (tensor<-1x48x12x-1xf32>, tensor<48xf32>, tensor<48xf32>, tensor<48xf32>, tensor<48xf32>) -> tensor<-1x48x12x-1xf32>, tensor<48xf32>, tensor<48xf32>, tensor<48xf32>, tensor<48xf32>, tensor<-1xu8>
    (%122) = "pd_op.relu" (%112) {__l_trt__:true,stop_gradient:[false],struct_name:"/PPHGNetV2/HGV2_Stage/Sequential/HGV2_Block/ConvBNAct_2/ReLU/"} : (tensor<-1x48x12x-1xf32>) -> tensor<-1x48x12x-1xf32>
    (%123) = "pd_op.conv2d" (%122, %124) {__l_trt__:true,data_format:"NCHW",dilations:[1,1],groups:1,padding_algorithm:"EXPLICIT",paddings:[1,1],stop_gradient:[false],strides:[1,1],struct_name:"/PPHGNetV2/HGV2_Stage/Sequential/HGV2_Block/ConvBNAct_3/Conv2D/"} : (tensor<-1x48x12x-1xf32>, tensor<48x48x3x3xf32>) -> tensor<-1x48x12x-1xf32>
    (%125, %126, %127, %128, %129, %130) = "pd_op.batch_norm_" (%123, %131, %132, %133, %134) {__l_trt__:true,data_format:"NCHW",epsilon:1e-05,is_test:true,momentum:0.9,stop_gradient:[false,false,false,false,false,false],struct_name:"/PPHGNetV2/HGV2_Stage/Sequential/HGV2_Block/ConvBNAct_3/BatchNorm2D/",trainable_statistics:false,use_global_stats:true} : (tensor<-1x48x12x-1xf32>, tensor<48xf32>, tensor<48xf32>, tensor<48xf32>, tensor<48xf32>) -> tensor<-1x48x12x-1xf32>, tensor<48xf32>, tensor<48xf32>, tensor<48xf32>, tensor<48xf32>, tensor<-1xu8>
    (%135) = "pd_op.relu" (%125) {__l_trt__:true,stop_gradient:[false],struct_name:"/PPHGNetV2/HGV2_Stage/Sequential/HGV2_Block/ConvBNAct_3/ReLU/"} : (tensor<-1x48x12x-1xf32>) -> tensor<-1x48x12x-1xf32>
    (%136) = "pd_op.conv2d" (%135, %137) {__l_trt__:true,data_format:"NCHW",dilations:[1,1],groups:1,padding_algorithm:"EXPLICIT",paddings:[1,1],stop_gradient:[false],strides:[1,1],struct_name:"/PPHGNetV2/HGV2_Stage/Sequential/HGV2_Block/ConvBNAct_4/Conv2D/"} : (tensor<-1x48x12x-1xf32>, tensor<48x48x3x3xf32>) -> tensor<-1x48x12x-1xf32>
    (%138, %139, %140, %141, %142, %143) = "pd_op.batch_norm_" (%136, %144, %145, %146, %147) {__l_trt__:true,data_format:"NCHW",epsilon:1e-05,is_test:true,momentum:0.9,stop_gradient:[false,false,false,false,false,false],struct_name:"/PPHGNetV2/HGV2_Stage/Sequential/HGV2_Block/ConvBNAct_4/BatchNorm2D/",trainable_statistics:false,use_global_stats:true} : (tensor<-1x48x12x-1xf32>, tensor<48xf32>, tensor<48xf32>, tensor<48xf32>, tensor<48xf32>) -> tensor<-1x48x12x-1xf32>, tensor<48xf32>, tensor<48xf32>, tensor<48xf32>, tensor<48xf32>, tensor<-1xu8>
    (%148) = "pd_op.relu" (%138) {__l_trt__:true,stop_gradient:[false],struct_name:"/PPHGNetV2/HGV2_Stage/Sequential/HGV2_Block/ConvBNAct_4/ReLU/"} : (tensor<-1x48x12x-1xf32>) -> tensor<-1x48x12x-1xf32>
    (%149) = "pd_op.conv2d" (%148, %150) {__l_trt__:true,data_format:"NCHW",dilations:[1,1],groups:1,padding_algorithm:"EXPLICIT",paddings:[1,1],stop_gradient:[false],strides:[1,1],struct_name:"/PPHGNetV2/HGV2_Stage/Sequential/HGV2_Block/ConvBNAct_5/Conv2D/"} : (tensor<-1x48x12x-1xf32>, tensor<48x48x3x3xf32>) -> tensor<-1x48x12x-1xf32>
    (%151, %152, %153, %154, %155, %156) = "pd_op.batch_norm_" (%149, %157, %158, %159, %160) {__l_trt__:true,data_format:"NCHW",epsilon:1e-05,is_test:true,momentum:0.9,stop_gradient:[false,false,false,false,false,false],struct_name:"/PPHGNetV2/HGV2_Stage/Sequential/HGV2_Block/ConvBNAct_5/BatchNorm2D/",trainable_statistics:false,use_global_stats:true} : (tensor<-1x48x12x-1xf32>, tensor<48xf32>, tensor<48xf32>, tensor<48xf32>, tensor<48xf32>) -> tensor<-1x48x12x-1xf32>, tensor<48xf32>, tensor<48xf32>, tensor<48xf32>, tensor<48xf32>, tensor<-1xu8>
    (%161) = "pd_op.relu" (%151) {__l_trt__:true,stop_gradient:[false],struct_name:"/PPHGNetV2/HGV2_Stage/Sequential/HGV2_Block/ConvBNAct_5/ReLU/"} : (tensor<-1x48x12x-1xf32>) -> tensor<-1x48x12x-1xf32>
    (%162) = "builtin.combine" (%74, %96, %109, %122, %135, %148, %161) {__l_trt__:true,stop_gradient:[false],struct_name:"/PPHGNetV2/HGV2_Stage/Sequential/HGV2_Block/"} : (tensor<-1x48x12x-1xf32>, tensor<-1x48x12x-1xf32>, tensor<-1x48x12x-1xf32>, tensor<-1x48x12x-1xf32>, tensor<-1x48x12x-1xf32>, tensor<-1x48x12x-1xf32>, tensor<-1x48x12x-1xf32>) -> vec[tensor<-1x48x12x-1xf32>,tensor<-1x48x12x-1xf32>,tensor<-1x48x12x-1xf32>,tensor<-1x48x12x-1xf32>,tensor<-1x48x12x-1xf32>,tensor<-1x48x12x-1xf32>,tensor<-1x48x12x-1xf32>]
    (%163) = "pd_op.concat" (%162, %164) {__l_trt__:true,stop_gradient:[false],struct_name:"/PPHGNetV2/HGV2_Stage/Sequential/HGV2_Block/"} : (vec[tensor<-1x48x12x-1xf32>,tensor<-1x48x12x-1xf32>,tensor<-1x48x12x-1xf32>,tensor<-1x48x12x-1xf32>,tensor<-1x48x12x-1xf32>,tensor<-1x48x12x-1xf32>,tensor<-1x48x12x-1xf32>], tensor<1xi32>) -> tensor<-1x336x12x-1xf32>
    (%165) = "pd_op.conv2d" (%163, %166) {__l_trt__:true,data_format:"NCHW",dilations:[1,1],groups:1,padding_algorithm:"EXPLICIT",paddings:[0,0],stop_gradient:[false],strides:[1,1],struct_name:"/PPHGNetV2/HGV2_Stage/Sequential/HGV2_Block/ConvBNAct_6/Conv2D/"} : (tensor<-1x336x12x-1xf32>, tensor<64x336x1x1xf32>) -> tensor<-1x64x12x-1xf32>
    (%167, %168, %169, %170, %171, %172) = "pd_op.batch_norm_" (%165, %173, %174, %175, %176) {__l_trt__:true,data_format:"NCHW",epsilon:1e-05,is_test:true,momentum:0.9,stop_gradient:[false,false,false,false,false,false],struct_name:"/PPHGNetV2/HGV2_Stage/Sequential/HGV2_Block/ConvBNAct_6/BatchNorm2D/",trainable_statistics:false,use_global_stats:true} : (tensor<-1x64x12x-1xf32>, tensor<64xf32>, tensor<64xf32>, tensor<64xf32>, tensor<64xf32>) -> tensor<-1x64x12x-1xf32>, tensor<64xf32>, tensor<64xf32>, tensor<64xf32>, tensor<64xf32>, tensor<-1xu8>
    (%177) = "pd_op.relu" (%167) {__l_trt__:true,stop_gradient:[false],struct_name:"/PPHGNetV2/HGV2_Stage/Sequential/HGV2_Block/ConvBNAct_6/ReLU/"} : (tensor<-1x64x12x-1xf32>) -> tensor<-1x64x12x-1xf32>
    (%178) = "pd_op.conv2d" (%177, %179) {__l_trt__:true,data_format:"NCHW",dilations:[1,1],groups:1,padding_algorithm:"EXPLICIT",paddings:[0,0],stop_gradient:[false],strides:[1,1],struct_name:"/PPHGNetV2/HGV2_Stage/Sequential/HGV2_Block/ConvBNAct_7/Conv2D/"} : (tensor<-1x64x12x-1xf32>, tensor<128x64x1x1xf32>) -> tensor<-1x128x12x-1xf32>
    (%180, %181, %182, %183, %184, %185) = "pd_op.batch_norm_" (%178, %186, %187, %188, %189) {__l_trt__:true,data_format:"NCHW",epsilon:1e-05,is_test:true,momentum:0.9,stop_gradient:[false,false,false,false,false,false],struct_name:"/PPHGNetV2/HGV2_Stage/Sequential/HGV2_Block/ConvBNAct_7/BatchNorm2D/",trainable_statistics:false,use_global_stats:true} : (tensor<-1x128x12x-1xf32>, tensor<128xf32>, tensor<128xf32>, tensor<128xf32>, tensor<128xf32>) -> tensor<-1x128x12x-1xf32>, tensor<128xf32>, tensor<128xf32>, tensor<128xf32>, tensor<128xf32>, tensor<-1xu8>
    (%190) = "pd_op.relu" (%180) {__l_trt__:true,stop_gradient:[false],struct_name:"/PPHGNetV2/HGV2_Stage/Sequential/HGV2_Block/ConvBNAct_7/ReLU/"} : (tensor<-1x128x12x-1xf32>) -> tensor<-1x128x12x-1xf32>
    (%191) = "pd_op.depthwise_conv2d" (%190, %192) {__l_trt__:true,data_format:"NCHW",dilations:[1,1],groups:128,padding_algorithm:"EXPLICIT",paddings:[1,1],stop_gradient:[false],strides:[1,2],struct_name:"/PPHGNetV2/HGV2_Stage_1/ConvBNAct/Conv2D/"} : (tensor<-1x128x12x-1xf32>, tensor<128x1x3x3xf32>) -> tensor<-1x128x12x-1xf32>
    (%193, %194, %195, %196, %197, %198) = "pd_op.batch_norm_" (%191, %199, %200, %201, %202) {__l_trt__:true,data_format:"NCHW",epsilon:1e-05,is_test:true,momentum:0.9,stop_gradient:[false,false,false,false,false,false],struct_name:"/PPHGNetV2/HGV2_Stage_1/ConvBNAct/BatchNorm2D/",trainable_statistics:false,use_global_stats:true} : (tensor<-1x128x12x-1xf32>, tensor<128xf32>, tensor<128xf32>, tensor<128xf32>, tensor<128xf32>) -> tensor<-1x128x12x-1xf32>, tensor<128xf32>, tensor<128xf32>, tensor<128xf32>, tensor<128xf32>, tensor<-1xu8>
    (%203) = "pd_op.conv2d" (%193, %204) {__l_trt__:true,data_format:"NCHW",dilations:[1,1],groups:1,padding_algorithm:"EXPLICIT",paddings:[1,1],stop_gradient:[false],strides:[1,1],struct_name:"/PPHGNetV2/HGV2_Stage_1/Sequential/HGV2_Block/ConvBNAct/Conv2D/"} : (tensor<-1x128x12x-1xf32>, tensor<96x128x3x3xf32>) -> tensor<-1x96x12x-1xf32>
    (%205, %206, %207, %208, %209, %210) = "pd_op.batch_norm_" (%203, %211, %212, %213, %214) {__l_trt__:true,data_format:"NCHW",epsilon:1e-05,is_test:true,momentum:0.9,stop_gradient:[false,false,false,false,false,false],struct_name:"/PPHGNetV2/HGV2_Stage_1/Sequential/HGV2_Block/ConvBNAct/BatchNorm2D/",trainable_statistics:false,use_global_stats:true} : (tensor<-1x96x12x-1xf32>, tensor<96xf32>, tensor<96xf32>, tensor<96xf32>, tensor<96xf32>) -> tensor<-1x96x12x-1xf32>, tensor<96xf32>, tensor<96xf32>, tensor<96xf32>, tensor<96xf32>, tensor<-1xu8>
    (%215) = "pd_op.relu" (%205) {__l_trt__:true,stop_gradient:[false],struct_name:"/PPHGNetV2/HGV2_Stage_1/Sequential/HGV2_Block/ConvBNAct/ReLU/"} : (tensor<-1x96x12x-1xf32>) -> tensor<-1x96x12x-1xf32>
    (%216) = "pd_op.conv2d" (%215, %217) {__l_trt__:true,data_format:"NCHW",dilations:[1,1],groups:1,padding_algorithm:"EXPLICIT",paddings:[1,1],stop_gradient:[false],strides:[1,1],struct_name:"/PPHGNetV2/HGV2_Stage_1/Sequential/HGV2_Block/ConvBNAct_1/Conv2D/"} : (tensor<-1x96x12x-1xf32>, tensor<96x96x3x3xf32>) -> tensor<-1x96x12x-1xf32>
    (%218, %219, %220, %221, %222, %223) = "pd_op.batch_norm_" (%216, %224, %225, %226, %227) {__l_trt__:true,data_format:"NCHW",epsilon:1e-05,is_test:true,momentum:0.9,stop_gradient:[false,false,false,false,false,false],struct_name:"/PPHGNetV2/HGV2_Stage_1/Sequential/HGV2_Block/ConvBNAct_1/BatchNorm2D/",trainable_statistics:false,use_global_stats:true} : (tensor<-1x96x12x-1xf32>, tensor<96xf32>, tensor<96xf32>, tensor<96xf32>, tensor<96xf32>) -> tensor<-1x96x12x-1xf32>, tensor<96xf32>, tensor<96xf32>, tensor<96xf32>, tensor<96xf32>, tensor<-1xu8>
    (%228) = "pd_op.relu" (%218) {__l_trt__:true,stop_gradient:[false],struct_name:"/PPHGNetV2/HGV2_Stage_1/Sequential/HGV2_Block/ConvBNAct_1/ReLU/"} : (tensor<-1x96x12x-1xf32>) -> tensor<-1x96x12x-1xf32>
    (%229) = "pd_op.conv2d" (%228, %230) {__l_trt__:true,data_format:"NCHW",dilations:[1,1],groups:1,padding_algorithm:"EXPLICIT",paddings:[1,1],stop_gradient:[false],strides:[1,1],struct_name:"/PPHGNetV2/HGV2_Stage_1/Sequential/HGV2_Block/ConvBNAct_2/Conv2D/"} : (tensor<-1x96x12x-1xf32>, tensor<96x96x3x3xf32>) -> tensor<-1x96x12x-1xf32>
    (%231, %232, %233, %234, %235, %236) = "pd_op.batch_norm_" (%229, %237, %238, %239, %240) {__l_trt__:true,data_format:"NCHW",epsilon:1e-05,is_test:true,momentum:0.9,stop_gradient:[false,false,false,false,false,false],struct_name:"/PPHGNetV2/HGV2_Stage_1/Sequential/HGV2_Block/ConvBNAct_2/BatchNorm2D/",trainable_statistics:false,use_global_stats:true} : (tensor<-1x96x12x-1xf32>, tensor<96xf32>, tensor<96xf32>, tensor<96xf32>, tensor<96xf32>) -> tensor<-1x96x12x-1xf32>, tensor<96xf32>, tensor<96xf32>, tensor<96xf32>, tensor<96xf32>, tensor<-1xu8>
    (%241) = "pd_op.relu" (%231) {__l_trt__:true,stop_gradient:[false],struct_name:"/PPHGNetV2/HGV2_Stage_1/Sequential/HGV2_Block/ConvBNAct_2/ReLU/"} : (tensor<-1x96x12x-1xf32>) -> tensor<-1x96x12x-1xf32>
    (%242) = "pd_op.conv2d" (%241, %243) {__l_trt__:true,data_format:"NCHW",dilations:[1,1],groups:1,padding_algorithm:"EXPLICIT",paddings:[1,1],stop_gradient:[false],strides:[1,1],struct_name:"/PPHGNetV2/HGV2_Stage_1/Sequential/HGV2_Block/ConvBNAct_3/Conv2D/"} : (tensor<-1x96x12x-1xf32>, tensor<96x96x3x3xf32>) -> tensor<-1x96x12x-1xf32>
    (%244, %245, %246, %247, %248, %249) = "pd_op.batch_norm_" (%242, %250, %251, %252, %253) {__l_trt__:true,data_format:"NCHW",epsilon:1e-05,is_test:true,momentum:0.9,stop_gradient:[false,false,false,false,false,false],struct_name:"/PPHGNetV2/HGV2_Stage_1/Sequential/HGV2_Block/ConvBNAct_3/BatchNorm2D/",trainable_statistics:false,use_global_stats:true} : (tensor<-1x96x12x-1xf32>, tensor<96xf32>, tensor<96xf32>, tensor<96xf32>, tensor<96xf32>) -> tensor<-1x96x12x-1xf32>, tensor<96xf32>, tensor<96xf32>, tensor<96xf32>, tensor<96xf32>, tensor<-1xu8>
    (%254) = "pd_op.relu" (%244) {__l_trt__:true,stop_gradient:[false],struct_name:"/PPHGNetV2/HGV2_Stage_1/Sequential/HGV2_Block/ConvBNAct_3/ReLU/"} : (tensor<-1x96x12x-1xf32>) -> tensor<-1x96x12x-1xf32>
    (%255) = "pd_op.conv2d" (%254, %256) {__l_trt__:true,data_format:"NCHW",dilations:[1,1],groups:1,padding_algorithm:"EXPLICIT",paddings:[1,1],stop_gradient:[false],strides:[1,1],struct_name:"/PPHGNetV2/HGV2_Stage_1/Sequential/HGV2_Block/ConvBNAct_4/Conv2D/"} : (tensor<-1x96x12x-1xf32>, tensor<96x96x3x3xf32>) -> tensor<-1x96x12x-1xf32>
    (%257, %258, %259, %260, %261, %262) = "pd_op.batch_norm_" (%255, %263, %264, %265, %266) {__l_trt__:true,data_format:"NCHW",epsilon:1e-05,is_test:true,momentum:0.9,stop_gradient:[false,false,false,false,false,false],struct_name:"/PPHGNetV2/HGV2_Stage_1/Sequential/HGV2_Block/ConvBNAct_4/BatchNorm2D/",trainable_statistics:false,use_global_stats:true} : (tensor<-1x96x12x-1xf32>, tensor<96xf32>, tensor<96xf32>, tensor<96xf32>, tensor<96xf32>) -> tensor<-1x96x12x-1xf32>, tensor<96xf32>, tensor<96xf32>, tensor<96xf32>, tensor<96xf32>, tensor<-1xu8>
    (%267) = "pd_op.relu" (%257) {__l_trt__:true,stop_gradient:[false],struct_name:"/PPHGNetV2/HGV2_Stage_1/Sequential/HGV2_Block/ConvBNAct_4/ReLU/"} : (tensor<-1x96x12x-1xf32>) -> tensor<-1x96x12x-1xf32>
    (%268) = "pd_op.conv2d" (%267, %269) {__l_trt__:true,data_format:"NCHW",dilations:[1,1],groups:1,padding_algorithm:"EXPLICIT",paddings:[1,1],stop_gradient:[false],strides:[1,1],struct_name:"/PPHGNetV2/HGV2_Stage_1/Sequential/HGV2_Block/ConvBNAct_5/Conv2D/"} : (tensor<-1x96x12x-1xf32>, tensor<96x96x3x3xf32>) -> tensor<-1x96x12x-1xf32>
    (%270, %271, %272, %273, %274, %275) = "pd_op.batch_norm_" (%268, %276, %277, %278, %279) {__l_trt__:true,data_format:"NCHW",epsilon:1e-05,is_test:true,momentum:0.9,stop_gradient:[false,false,false,false,false,false],struct_name:"/PPHGNetV2/HGV2_Stage_1/Sequential/HGV2_Block/ConvBNAct_5/BatchNorm2D/",trainable_statistics:false,use_global_stats:true} : (tensor<-1x96x12x-1xf32>, tensor<96xf32>, tensor<96xf32>, tensor<96xf32>, tensor<96xf32>) -> tensor<-1x96x12x-1xf32>, tensor<96xf32>, tensor<96xf32>, tensor<96xf32>, tensor<96xf32>, tensor<-1xu8>
    (%280) = "pd_op.relu" (%270) {__l_trt__:true,stop_gradient:[false],struct_name:"/PPHGNetV2/HGV2_Stage_1/Sequential/HGV2_Block/ConvBNAct_5/ReLU/"} : (tensor<-1x96x12x-1xf32>) -> tensor<-1x96x12x-1xf32>
    (%281) = "builtin.combine" (%193, %215, %228, %241, %254, %267, %280) {__l_trt__:true,stop_gradient:[false],struct_name:"/PPHGNetV2/HGV2_Stage_1/Sequential/HGV2_Block/"} : (tensor<-1x128x12x-1xf32>, tensor<-1x96x12x-1xf32>, tensor<-1x96x12x-1xf32>, tensor<-1x96x12x-1xf32>, tensor<-1x96x12x-1xf32>, tensor<-1x96x12x-1xf32>, tensor<-1x96x12x-1xf32>) -> vec[tensor<-1x128x12x-1xf32>,tensor<-1x96x12x-1xf32>,tensor<-1x96x12x-1xf32>,tensor<-1x96x12x-1xf32>,tensor<-1x96x12x-1xf32>,tensor<-1x96x12x-1xf32>,tensor<-1x96x12x-1xf32>]
    (%282) = "pd_op.concat" (%281, %283) {__l_trt__:true,stop_gradient:[false],struct_name:"/PPHGNetV2/HGV2_Stage_1/Sequential/HGV2_Block/"} : (vec[tensor<-1x128x12x-1xf32>,tensor<-1x96x12x-1xf32>,tensor<-1x96x12x-1xf32>,tensor<-1x96x12x-1xf32>,tensor<-1x96x12x-1xf32>,tensor<-1x96x12x-1xf32>,tensor<-1x96x12x-1xf32>], tensor<1xi32>) -> tensor<-1x704x12x-1xf32>
    (%284) = "pd_op.conv2d" (%282, %285) {__l_trt__:true,data_format:"NCHW",dilations:[1,1],groups:1,padding_algorithm:"EXPLICIT",paddings:[0,0],stop_gradient:[false],strides:[1,1],struct_name:"/PPHGNetV2/HGV2_Stage_1/Sequential/HGV2_Block/ConvBNAct_6/Conv2D/"} : (tensor<-1x704x12x-1xf32>, tensor<256x704x1x1xf32>) -> tensor<-1x256x12x-1xf32>
    (%286, %287, %288, %289, %290, %291) = "pd_op.batch_norm_" (%284, %292, %293, %294, %295) {__l_trt__:true,data_format:"NCHW",epsilon:1e-05,is_test:true,momentum:0.9,stop_gradient:[false,false,false,false,false,false],struct_name:"/PPHGNetV2/HGV2_Stage_1/Sequential/HGV2_Block/ConvBNAct_6/BatchNorm2D/",trainable_statistics:false,use_global_stats:true} : (tensor<-1x256x12x-1xf32>, tensor<256xf32>, tensor<256xf32>, tensor<256xf32>, tensor<256xf32>) -> tensor<-1x256x12x-1xf32>, tensor<256xf32>, tensor<256xf32>, tensor<256xf32>, tensor<256xf32>, tensor<-1xu8>
    (%296) = "pd_op.relu" (%286) {__l_trt__:true,stop_gradient:[false],struct_name:"/PPHGNetV2/HGV2_Stage_1/Sequential/HGV2_Block/ConvBNAct_6/ReLU/"} : (tensor<-1x256x12x-1xf32>) -> tensor<-1x256x12x-1xf32>
    (%297) = "pd_op.conv2d" (%296, %298) {__l_trt__:true,data_format:"NCHW",dilations:[1,1],groups:1,padding_algorithm:"EXPLICIT",paddings:[0,0],stop_gradient:[false],strides:[1,1],struct_name:"/PPHGNetV2/HGV2_Stage_1/Sequential/HGV2_Block/ConvBNAct_7/Conv2D/"} : (tensor<-1x256x12x-1xf32>, tensor<512x256x1x1xf32>) -> tensor<-1x512x12x-1xf32>
    (%299, %300, %301, %302, %303, %304) = "pd_op.batch_norm_" (%297, %305, %306, %307, %308) {__l_trt__:true,data_format:"NCHW",epsilon:1e-05,is_test:true,momentum:0.9,stop_gradient:[false,false,false,false,false,false],struct_name:"/PPHGNetV2/HGV2_Stage_1/Sequential/HGV2_Block/ConvBNAct_7/BatchNorm2D/",trainable_statistics:false,use_global_stats:true} : (tensor<-1x512x12x-1xf32>, tensor<512xf32>, tensor<512xf32>, tensor<512xf32>, tensor<512xf32>) -> tensor<-1x512x12x-1xf32>, tensor<512xf32>, tensor<512xf32>, tensor<512xf32>, tensor<512xf32>, tensor<-1xu8>
    (%309) = "pd_op.relu" (%299) {__l_trt__:true,stop_gradient:[false],struct_name:"/PPHGNetV2/HGV2_Stage_1/Sequential/HGV2_Block/ConvBNAct_7/ReLU/"} : (tensor<-1x512x12x-1xf32>) -> tensor<-1x512x12x-1xf32>
    (%310) = "pd_op.depthwise_conv2d" (%309, %311) {__l_trt__:true,data_format:"NCHW",dilations:[1,1],groups:512,padding_algorithm:"EXPLICIT",paddings:[1,1],stop_gradient:[false],strides:[2,1],struct_name:"/PPHGNetV2/HGV2_Stage_2/ConvBNAct/Conv2D/"} : (tensor<-1x512x12x-1xf32>, tensor<512x1x3x3xf32>) -> tensor<-1x512x6x-1xf32>
    (%312, %313, %314, %315, %316, %317) = "pd_op.batch_norm_" (%310, %318, %319, %320, %321) {__l_trt__:true,data_format:"NCHW",epsilon:1e-05,is_test:true,momentum:0.9,stop_gradient:[false,false,false,false,false,false],struct_name:"/PPHGNetV2/HGV2_Stage_2/ConvBNAct/BatchNorm2D/",trainable_statistics:false,use_global_stats:true} : (tensor<-1x512x6x-1xf32>, tensor<512xf32>, tensor<512xf32>, tensor<512xf32>, tensor<512xf32>) -> tensor<-1x512x6x-1xf32>, tensor<512xf32>, tensor<512xf32>, tensor<512xf32>, tensor<512xf32>, tensor<-1xu8>
    (%322) = "pd_op.conv2d" (%312, %323) {__l_trt__:true,data_format:"NCHW",dilations:[1,1],groups:1,padding_algorithm:"EXPLICIT",paddings:[0,0],stop_gradient:[false],strides:[1,1],struct_name:"/PPHGNetV2/HGV2_Stage_2/Sequential/HGV2_Block/LightConvBNAct/ConvBNAct/Conv2D/"} : (tensor<-1x512x6x-1xf32>, tensor<192x512x1x1xf32>) -> tensor<-1x192x6x-1xf32>
    (%324, %325, %326, %327, %328, %329) = "pd_op.batch_norm_" (%322, %330, %331, %332, %333) {__l_trt__:true,data_format:"NCHW",epsilon:1e-05,is_test:true,momentum:0.9,stop_gradient:[false,false,false,false,false,false],struct_name:"/PPHGNetV2/HGV2_Stage_2/Sequential/HGV2_Block/LightConvBNAct/ConvBNAct/BatchNorm2D/",trainable_statistics:false,use_global_stats:true} : (tensor<-1x192x6x-1xf32>, tensor<192xf32>, tensor<192xf32>, tensor<192xf32>, tensor<192xf32>) -> tensor<-1x192x6x-1xf32>, tensor<192xf32>, tensor<192xf32>, tensor<192xf32>, tensor<192xf32>, tensor<-1xu8>
    (%334) = "pd_op.depthwise_conv2d" (%324, %335) {__l_trt__:true,data_format:"NCHW",dilations:[1,1],groups:192,padding_algorithm:"EXPLICIT",paddings:[2,2],stop_gradient:[false],strides:[1,1],struct_name:"/PPHGNetV2/HGV2_Stage_2/Sequential/HGV2_Block/LightConvBNAct/ConvBNAct_1/Conv2D/"} : (tensor<-1x192x6x-1xf32>, tensor<192x1x5x5xf32>) -> tensor<-1x192x6x-1xf32>
    (%336, %337, %338, %339, %340, %341) = "pd_op.batch_norm_" (%334, %342, %343, %344, %345) {__l_trt__:true,data_format:"NCHW",epsilon:1e-05,is_test:true,momentum:0.9,stop_gradient:[false,false,false,false,false,false],struct_name:"/PPHGNetV2/HGV2_Stage_2/Sequential/HGV2_Block/LightConvBNAct/ConvBNAct_1/BatchNorm2D/",trainable_statistics:false,use_global_stats:true} : (tensor<-1x192x6x-1xf32>, tensor<192xf32>, tensor<192xf32>, tensor<192xf32>, tensor<192xf32>) -> tensor<-1x192x6x-1xf32>, tensor<192xf32>, tensor<192xf32>, tensor<192xf32>, tensor<192xf32>, tensor<-1xu8>
    (%346) = "pd_op.relu" (%336) {__l_trt__:true,stop_gradient:[false],struct_name:"/PPHGNetV2/HGV2_Stage_2/Sequential/HGV2_Block/LightConvBNAct/ConvBNAct_1/ReLU/"} : (tensor<-1x192x6x-1xf32>) -> tensor<-1x192x6x-1xf32>
    (%347) = "pd_op.conv2d" (%346, %348) {__l_trt__:true,data_format:"NCHW",dilations:[1,1],groups:1,padding_algorithm:"EXPLICIT",paddings:[0,0],stop_gradient:[false],strides:[1,1],struct_name:"/PPHGNetV2/HGV2_Stage_2/Sequential/HGV2_Block/LightConvBNAct_1/ConvBNAct/Conv2D/"} : (tensor<-1x192x6x-1xf32>, tensor<192x192x1x1xf32>) -> tensor<-1x192x6x-1xf32>
    (%349, %350, %351, %352, %353, %354) = "pd_op.batch_norm_" (%347, %355, %356, %357, %358) {__l_trt__:true,data_format:"NCHW",epsilon:1e-05,is_test:true,momentum:0.9,stop_gradient:[false,false,false,false,false,false],struct_name:"/PPHGNetV2/HGV2_Stage_2/Sequential/HGV2_Block/LightConvBNAct_1/ConvBNAct/BatchNorm2D/",trainable_statistics:false,use_global_stats:true} : (tensor<-1x192x6x-1xf32>, tensor<192xf32>, tensor<192xf32>, tensor<192xf32>, tensor<192xf32>) -> tensor<-1x192x6x-1xf32>, tensor<192xf32>, tensor<192xf32>, tensor<192xf32>, tensor<192xf32>, tensor<-1xu8>
    (%359) = "pd_op.depthwise_conv2d" (%349, %360) {__l_trt__:true,data_format:"NCHW",dilations:[1,1],groups:192,padding_algorithm:"EXPLICIT",paddings:[2,2],stop_gradient:[false],strides:[1,1],struct_name:"/PPHGNetV2/HGV2_Stage_2/Sequential/HGV2_Block/LightConvBNAct_1/ConvBNAct_1/Conv2D/"} : (tensor<-1x192x6x-1xf32>, tensor<192x1x5x5xf32>) -> tensor<-1x192x6x-1xf32>
    (%361, %362, %363, %364, %365, %366) = "pd_op.batch_norm_" (%359, %367, %368, %369, %370) {__l_trt__:true,data_format:"NCHW",epsilon:1e-05,is_test:true,momentum:0.9,stop_gradient:[false,false,false,false,false,false],struct_name:"/PPHGNetV2/HGV2_Stage_2/Sequential/HGV2_Block/LightConvBNAct_1/ConvBNAct_1/BatchNorm2D/",trainable_statistics:false,use_global_stats:true} : (tensor<-1x192x6x-1xf32>, tensor<192xf32>, tensor<192xf32>, tensor<192xf32>, tensor<192xf32>) -> tensor<-1x192x6x-1xf32>, tensor<192xf32>, tensor<192xf32>, tensor<192xf32>, tensor<192xf32>, tensor<-1xu8>
    (%371) = "pd_op.relu" (%361) {__l_trt__:true,stop_gradient:[false],struct_name:"/PPHGNetV2/HGV2_Stage_2/Sequential/HGV2_Block/LightConvBNAct_1/ConvBNAct_1/ReLU/"} : (tensor<-1x192x6x-1xf32>) -> tensor<-1x192x6x-1xf32>
    (%372) = "pd_op.conv2d" (%371, %373) {__l_trt__:true,data_format:"NCHW",dilations:[1,1],groups:1,padding_algorithm:"EXPLICIT",paddings:[0,0],stop_gradient:[false],strides:[1,1],struct_name:"/PPHGNetV2/HGV2_Stage_2/Sequential/HGV2_Block/LightConvBNAct_2/ConvBNAct/Conv2D/"} : (tensor<-1x192x6x-1xf32>, tensor<192x192x1x1xf32>) -> tensor<-1x192x6x-1xf32>
    (%374, %375, %376, %377, %378, %379) = "pd_op.batch_norm_" (%372, %380, %381, %382, %383) {__l_trt__:true,data_format:"NCHW",epsilon:1e-05,is_test:true,momentum:0.9,stop_gradient:[false,false,false,false,false,false],struct_name:"/PPHGNetV2/HGV2_Stage_2/Sequential/HGV2_Block/LightConvBNAct_2/ConvBNAct/BatchNorm2D/",trainable_statistics:false,use_global_stats:true} : (tensor<-1x192x6x-1xf32>, tensor<192xf32>, tensor<192xf32>, tensor<192xf32>, tensor<192xf32>) -> tensor<-1x192x6x-1xf32>, tensor<192xf32>, tensor<192xf32>, tensor<192xf32>, tensor<192xf32>, tensor<-1xu8>
    (%384) = "pd_op.depthwise_conv2d" (%374, %385) {__l_trt__:true,data_format:"NCHW",dilations:[1,1],groups:192,padding_algorithm:"EXPLICIT",paddings:[2,2],stop_gradient:[false],strides:[1,1],struct_name:"/PPHGNetV2/HGV2_Stage_2/Sequential/HGV2_Block/LightConvBNAct_2/ConvBNAct_1/Conv2D/"} : (tensor<-1x192x6x-1xf32>, tensor<192x1x5x5xf32>) -> tensor<-1x192x6x-1xf32>
    (%386, %387, %388, %389, %390, %391) = "pd_op.batch_norm_" (%384, %392, %393, %394, %395) {__l_trt__:true,data_format:"NCHW",epsilon:1e-05,is_test:true,momentum:0.9,stop_gradient:[false,false,false,false,false,false],struct_name:"/PPHGNetV2/HGV2_Stage_2/Sequential/HGV2_Block/LightConvBNAct_2/ConvBNAct_1/BatchNorm2D/",trainable_statistics:false,use_global_stats:true} : (tensor<-1x192x6x-1xf32>, tensor<192xf32>, tensor<192xf32>, tensor<192xf32>, tensor<192xf32>) -> tensor<-1x192x6x-1xf32>, tensor<192xf32>, tensor<192xf32>, tensor<192xf32>, tensor<192xf32>, tensor<-1xu8>
    (%396) = "pd_op.relu" (%386) {__l_trt__:true,stop_gradient:[false],struct_name:"/PPHGNetV2/HGV2_Stage_2/Sequential/HGV2_Block/LightConvBNAct_2/ConvBNAct_1/ReLU/"} : (tensor<-1x192x6x-1xf32>) -> tensor<-1x192x6x-1xf32>
    (%397) = "pd_op.conv2d" (%396, %398) {__l_trt__:true,data_format:"NCHW",dilations:[1,1],groups:1,padding_algorithm:"EXPLICIT",paddings:[0,0],stop_gradient:[false],strides:[1,1],struct_name:"/PPHGNetV2/HGV2_Stage_2/Sequential/HGV2_Block/LightConvBNAct_3/ConvBNAct/Conv2D/"} : (tensor<-1x192x6x-1xf32>, tensor<192x192x1x1xf32>) -> tensor<-1x192x6x-1xf32>
    (%399, %400, %401, %402, %403, %404) = "pd_op.batch_norm_" (%397, %405, %406, %407, %408) {__l_trt__:true,data_format:"NCHW",epsilon:1e-05,is_test:true,momentum:0.9,stop_gradient:[false,false,false,false,false,false],struct_name:"/PPHGNetV2/HGV2_Stage_2/Sequential/HGV2_Block/LightConvBNAct_3/ConvBNAct/BatchNorm2D/",trainable_statistics:false,use_global_stats:true} : (tensor<-1x192x6x-1xf32>, tensor<192xf32>, tensor<192xf32>, tensor<192xf32>, tensor<192xf32>) -> tensor<-1x192x6x-1xf32>, tensor<192xf32>, tensor<192xf32>, tensor<192xf32>, tensor<192xf32>, tensor<-1xu8>
    (%409) = "pd_op.depthwise_conv2d" (%399, %410) {__l_trt__:true,data_format:"NCHW",dilations:[1,1],groups:192,padding_algorithm:"EXPLICIT",paddings:[2,2],stop_gradient:[false],strides:[1,1],struct_name:"/PPHGNetV2/HGV2_Stage_2/Sequential/HGV2_Block/LightConvBNAct_3/ConvBNAct_1/Conv2D/"} : (tensor<-1x192x6x-1xf32>, tensor<192x1x5x5xf32>) -> tensor<-1x192x6x-1xf32>
    (%411, %412, %413, %414, %415, %416) = "pd_op.batch_norm_" (%409, %417, %418, %419, %420) {__l_trt__:true,data_format:"NCHW",epsilon:1e-05,is_test:true,momentum:0.9,stop_gradient:[false,false,false,false,false,false],struct_name:"/PPHGNetV2/HGV2_Stage_2/Sequential/HGV2_Block/LightConvBNAct_3/ConvBNAct_1/BatchNorm2D/",trainable_statistics:false,use_global_stats:true} : (tensor<-1x192x6x-1xf32>, tensor<192xf32>, tensor<192xf32>, tensor<192xf32>, tensor<192xf32>) -> tensor<-1x192x6x-1xf32>, tensor<192xf32>, tensor<192xf32>, tensor<192xf32>, tensor<192xf32>, tensor<-1xu8>
    (%421) = "pd_op.relu" (%411) {__l_trt__:true,stop_gradient:[false],struct_name:"/PPHGNetV2/HGV2_Stage_2/Sequential/HGV2_Block/LightConvBNAct_3/ConvBNAct_1/ReLU/"} : (tensor<-1x192x6x-1xf32>) -> tensor<-1x192x6x-1xf32>
    (%422) = "pd_op.conv2d" (%421, %423) {__l_trt__:true,data_format:"NCHW",dilations:[1,1],groups:1,padding_algorithm:"EXPLICIT",paddings:[0,0],stop_gradient:[false],strides:[1,1],struct_name:"/PPHGNetV2/HGV2_Stage_2/Sequential/HGV2_Block/LightConvBNAct_4/ConvBNAct/Conv2D/"} : (tensor<-1x192x6x-1xf32>, tensor<192x192x1x1xf32>) -> tensor<-1x192x6x-1xf32>
    (%424, %425, %426, %427, %428, %429) = "pd_op.batch_norm_" (%422, %430, %431, %432, %433) {__l_trt__:true,data_format:"NCHW",epsilon:1e-05,is_test:true,momentum:0.9,stop_gradient:[false,false,false,false,false,false],struct_name:"/PPHGNetV2/HGV2_Stage_2/Sequential/HGV2_Block/LightConvBNAct_4/ConvBNAct/BatchNorm2D/",trainable_statistics:false,use_global_stats:true} : (tensor<-1x192x6x-1xf32>, tensor<192xf32>, tensor<192xf32>, tensor<192xf32>, tensor<192xf32>) -> tensor<-1x192x6x-1xf32>, tensor<192xf32>, tensor<192xf32>, tensor<192xf32>, tensor<192xf32>, tensor<-1xu8>
    (%434) = "pd_op.depthwise_conv2d" (%424, %435) {__l_trt__:true,data_format:"NCHW",dilations:[1,1],groups:192,padding_algorithm:"EXPLICIT",paddings:[2,2],stop_gradient:[false],strides:[1,1],struct_name:"/PPHGNetV2/HGV2_Stage_2/Sequential/HGV2_Block/LightConvBNAct_4/ConvBNAct_1/Conv2D/"} : (tensor<-1x192x6x-1xf32>, tensor<192x1x5x5xf32>) -> tensor<-1x192x6x-1xf32>
    (%436, %437, %438, %439, %440, %441) = "pd_op.batch_norm_" (%434, %442, %443, %444, %445) {__l_trt__:true,data_format:"NCHW",epsilon:1e-05,is_test:true,momentum:0.9,stop_gradient:[false,false,false,false,false,false],struct_name:"/PPHGNetV2/HGV2_Stage_2/Sequential/HGV2_Block/LightConvBNAct_4/ConvBNAct_1/BatchNorm2D/",trainable_statistics:false,use_global_stats:true} : (tensor<-1x192x6x-1xf32>, tensor<192xf32>, tensor<192xf32>, tensor<192xf32>, tensor<192xf32>) -> tensor<-1x192x6x-1xf32>, tensor<192xf32>, tensor<192xf32>, tensor<192xf32>, tensor<192xf32>, tensor<-1xu8>
    (%446) = "pd_op.relu" (%436) {__l_trt__:true,stop_gradient:[false],struct_name:"/PPHGNetV2/HGV2_Stage_2/Sequential/HGV2_Block/LightConvBNAct_4/ConvBNAct_1/ReLU/"} : (tensor<-1x192x6x-1xf32>) -> tensor<-1x192x6x-1xf32>
    (%447) = "pd_op.conv2d" (%446, %448) {__l_trt__:true,data_format:"NCHW",dilations:[1,1],groups:1,padding_algorithm:"EXPLICIT",paddings:[0,0],stop_gradient:[false],strides:[1,1],struct_name:"/PPHGNetV2/HGV2_Stage_2/Sequential/HGV2_Block/LightConvBNAct_5/ConvBNAct/Conv2D/"} : (tensor<-1x192x6x-1xf32>, tensor<192x192x1x1xf32>) -> tensor<-1x192x6x-1xf32>
    (%449, %450, %451, %452, %453, %454) = "pd_op.batch_norm_" (%447, %455, %456, %457, %458) {__l_trt__:true,data_format:"NCHW",epsilon:1e-05,is_test:true,momentum:0.9,stop_gradient:[false,false,false,false,false,false],struct_name:"/PPHGNetV2/HGV2_Stage_2/Sequential/HGV2_Block/LightConvBNAct_5/ConvBNAct/BatchNorm2D/",trainable_statistics:false,use_global_stats:true} : (tensor<-1x192x6x-1xf32>, tensor<192xf32>, tensor<192xf32>, tensor<192xf32>, tensor<192xf32>) -> tensor<-1x192x6x-1xf32>, tensor<192xf32>, tensor<192xf32>, tensor<192xf32>, tensor<192xf32>, tensor<-1xu8>
    (%459) = "pd_op.depthwise_conv2d" (%449, %460) {__l_trt__:true,data_format:"NCHW",dilations:[1,1],groups:192,padding_algorithm:"EXPLICIT",paddings:[2,2],stop_gradient:[false],strides:[1,1],struct_name:"/PPHGNetV2/HGV2_Stage_2/Sequential/HGV2_Block/LightConvBNAct_5/ConvBNAct_1/Conv2D/"} : (tensor<-1x192x6x-1xf32>, tensor<192x1x5x5xf32>) -> tensor<-1x192x6x-1xf32>
    (%461, %462, %463, %464, %465, %466) = "pd_op.batch_norm_" (%459, %467, %468, %469, %470) {__l_trt__:true,data_format:"NCHW",epsilon:1e-05,is_test:true,momentum:0.9,stop_gradient:[false,false,false,false,false,false],struct_name:"/PPHGNetV2/HGV2_Stage_2/Sequential/HGV2_Block/LightConvBNAct_5/ConvBNAct_1/BatchNorm2D/",trainable_statistics:false,use_global_stats:true} : (tensor<-1x192x6x-1xf32>, tensor<192xf32>, tensor<192xf32>, tensor<192xf32>, tensor<192xf32>) -> tensor<-1x192x6x-1xf32>, tensor<192xf32>, tensor<192xf32>, tensor<192xf32>, tensor<192xf32>, tensor<-1xu8>
    (%471) = "pd_op.relu" (%461) {__l_trt__:true,stop_gradient:[false],struct_name:"/PPHGNetV2/HGV2_Stage_2/Sequential/HGV2_Block/LightConvBNAct_5/ConvBNAct_1/ReLU/"} : (tensor<-1x192x6x-1xf32>) -> tensor<-1x192x6x-1xf32>
    (%472) = "builtin.combine" (%312, %346, %371, %396, %421, %446, %471) {__l_trt__:true,stop_gradient:[false],struct_name:"/PPHGNetV2/HGV2_Stage_2/Sequential/HGV2_Block/"} : (tensor<-1x512x6x-1xf32>, tensor<-1x192x6x-1xf32>, tensor<-1x192x6x-1xf32>, tensor<-1x192x6x-1xf32>, tensor<-1x192x6x-1xf32>, tensor<-1x192x6x-1xf32>, tensor<-1x192x6x-1xf32>) -> vec[tensor<-1x512x6x-1xf32>,tensor<-1x192x6x-1xf32>,tensor<-1x192x6x-1xf32>,tensor<-1x192x6x-1xf32>,tensor<-1x192x6x-1xf32>,tensor<-1x192x6x-1xf32>,tensor<-1x192x6x-1xf32>]
    (%473) = "pd_op.concat" (%472, %474) {__l_trt__:true,stop_gradient:[false],struct_name:"/PPHGNetV2/HGV2_Stage_2/Sequential/HGV2_Block/"} : (vec[tensor<-1x512x6x-1xf32>,tensor<-1x192x6x-1xf32>,tensor<-1x192x6x-1xf32>,tensor<-1x192x6x-1xf32>,tensor<-1x192x6x-1xf32>,tensor<-1x192x6x-1xf32>,tensor<-1x192x6x-1xf32>], tensor<1xi32>) -> tensor<-1x1664x6x-1xf32>
    (%475) = "pd_op.conv2d" (%473, %476) {__l_trt__:true,data_format:"NCHW",dilations:[1,1],groups:1,padding_algorithm:"EXPLICIT",paddings:[0,0],stop_gradient:[false],strides:[1,1],struct_name:"/PPHGNetV2/HGV2_Stage_2/Sequential/HGV2_Block/ConvBNAct/Conv2D/"} : (tensor<-1x1664x6x-1xf32>, tensor<512x1664x1x1xf32>) -> tensor<-1x512x6x-1xf32>
    (%477, %478, %479, %480, %481, %482) = "pd_op.batch_norm_" (%475, %483, %484, %485, %486) {__l_trt__:true,data_format:"NCHW",epsilon:1e-05,is_test:true,momentum:0.9,stop_gradient:[false,false,false,false,false,false],struct_name:"/PPHGNetV2/HGV2_Stage_2/Sequential/HGV2_Block/ConvBNAct/BatchNorm2D/",trainable_statistics:false,use_global_stats:true} : (tensor<-1x512x6x-1xf32>, tensor<512xf32>, tensor<512xf32>, tensor<512xf32>, tensor<512xf32>) -> tensor<-1x512x6x-1xf32>, tensor<512xf32>, tensor<512xf32>, tensor<512xf32>, tensor<512xf32>, tensor<-1xu8>
    (%487) = "pd_op.relu" (%477) {__l_trt__:true,stop_gradient:[false],struct_name:"/PPHGNetV2/HGV2_Stage_2/Sequential/HGV2_Block/ConvBNAct/ReLU/"} : (tensor<-1x512x6x-1xf32>) -> tensor<-1x512x6x-1xf32>
    (%488) = "pd_op.conv2d" (%487, %489) {__l_trt__:true,data_format:"NCHW",dilations:[1,1],groups:1,padding_algorithm:"EXPLICIT",paddings:[0,0],stop_gradient:[false],strides:[1,1],struct_name:"/PPHGNetV2/HGV2_Stage_2/Sequential/HGV2_Block/ConvBNAct_1/Conv2D/"} : (tensor<-1x512x6x-1xf32>, tensor<1024x512x1x1xf32>) -> tensor<-1x1024x6x-1xf32>
    (%490, %491, %492, %493, %494, %495) = "pd_op.batch_norm_" (%488, %496, %497, %498, %499) {__l_trt__:true,data_format:"NCHW",epsilon:1e-05,is_test:true,momentum:0.9,stop_gradient:[false,false,false,false,false,false],struct_name:"/PPHGNetV2/HGV2_Stage_2/Sequential/HGV2_Block/ConvBNAct_1/BatchNorm2D/",trainable_statistics:false,use_global_stats:true} : (tensor<-1x1024x6x-1xf32>, tensor<1024xf32>, tensor<1024xf32>, tensor<1024xf32>, tensor<1024xf32>) -> tensor<-1x1024x6x-1xf32>, tensor<1024xf32>, tensor<1024xf32>, tensor<1024xf32>, tensor<1024xf32>, tensor<-1xu8>
    (%500) = "pd_op.relu" (%490) {__l_trt__:true,stop_gradient:[false],struct_name:"/PPHGNetV2/HGV2_Stage_2/Sequential/HGV2_Block/ConvBNAct_1/ReLU/"} : (tensor<-1x1024x6x-1xf32>) -> tensor<-1x1024x6x-1xf32>
    (%501) = "pd_op.conv2d" (%500, %502) {__l_trt__:true,data_format:"NCHW",dilations:[1,1],groups:1,padding_algorithm:"EXPLICIT",paddings:[0,0],stop_gradient:[false],strides:[1,1],struct_name:"/PPHGNetV2/HGV2_Stage_2/Sequential/HGV2_Block_1/LightConvBNAct/ConvBNAct/Conv2D/"} : (tensor<-1x1024x6x-1xf32>, tensor<192x1024x1x1xf32>) -> tensor<-1x192x6x-1xf32>
    (%503, %504, %505, %506, %507, %508) = "pd_op.batch_norm_" (%501, %509, %510, %511, %512) {__l_trt__:true,data_format:"NCHW",epsilon:1e-05,is_test:true,momentum:0.9,stop_gradient:[false,false,false,false,false,false],struct_name:"/PPHGNetV2/HGV2_Stage_2/Sequential/HGV2_Block_1/LightConvBNAct/ConvBNAct/BatchNorm2D/",trainable_statistics:false,use_global_stats:true} : (tensor<-1x192x6x-1xf32>, tensor<192xf32>, tensor<192xf32>, tensor<192xf32>, tensor<192xf32>) -> tensor<-1x192x6x-1xf32>, tensor<192xf32>, tensor<192xf32>, tensor<192xf32>, tensor<192xf32>, tensor<-1xu8>
    (%513) = "pd_op.depthwise_conv2d" (%503, %514) {__l_trt__:true,data_format:"NCHW",dilations:[1,1],groups:192,padding_algorithm:"EXPLICIT",paddings:[2,2],stop_gradient:[false],strides:[1,1],struct_name:"/PPHGNetV2/HGV2_Stage_2/Sequential/HGV2_Block_1/LightConvBNAct/ConvBNAct_1/Conv2D/"} : (tensor<-1x192x6x-1xf32>, tensor<192x1x5x5xf32>) -> tensor<-1x192x6x-1xf32>
    (%515, %516, %517, %518, %519, %520) = "pd_op.batch_norm_" (%513, %521, %522, %523, %524) {__l_trt__:true,data_format:"NCHW",epsilon:1e-05,is_test:true,momentum:0.9,stop_gradient:[false,false,false,false,false,false],struct_name:"/PPHGNetV2/HGV2_Stage_2/Sequential/HGV2_Block_1/LightConvBNAct/ConvBNAct_1/BatchNorm2D/",trainable_statistics:false,use_global_stats:true} : (tensor<-1x192x6x-1xf32>, tensor<192xf32>, tensor<192xf32>, tensor<192xf32>, tensor<192xf32>) -> tensor<-1x192x6x-1xf32>, tensor<192xf32>, tensor<192xf32>, tensor<192xf32>, tensor<192xf32>, tensor<-1xu8>
    (%525) = "pd_op.relu" (%515) {__l_trt__:true,stop_gradient:[false],struct_name:"/PPHGNetV2/HGV2_Stage_2/Sequential/HGV2_Block_1/LightConvBNAct/ConvBNAct_1/ReLU/"} : (tensor<-1x192x6x-1xf32>) -> tensor<-1x192x6x-1xf32>
    (%526) = "pd_op.conv2d" (%525, %527) {__l_trt__:true,data_format:"NCHW",dilations:[1,1],groups:1,padding_algorithm:"EXPLICIT",paddings:[0,0],stop_gradient:[false],strides:[1,1],struct_name:"/PPHGNetV2/HGV2_Stage_2/Sequential/HGV2_Block_1/LightConvBNAct_1/ConvBNAct/Conv2D/"} : (tensor<-1x192x6x-1xf32>, tensor<192x192x1x1xf32>) -> tensor<-1x192x6x-1xf32>
    (%528, %529, %530, %531, %532, %533) = "pd_op.batch_norm_" (%526, %534, %535, %536, %537) {__l_trt__:true,data_format:"NCHW",epsilon:1e-05,is_test:true,momentum:0.9,stop_gradient:[false,false,false,false,false,false],struct_name:"/PPHGNetV2/HGV2_Stage_2/Sequential/HGV2_Block_1/LightConvBNAct_1/ConvBNAct/BatchNorm2D/",trainable_statistics:false,use_global_stats:true} : (tensor<-1x192x6x-1xf32>, tensor<192xf32>, tensor<192xf32>, tensor<192xf32>, tensor<192xf32>) -> tensor<-1x192x6x-1xf32>, tensor<192xf32>, tensor<192xf32>, tensor<192xf32>, tensor<192xf32>, tensor<-1xu8>
    (%538) = "pd_op.depthwise_conv2d" (%528, %539) {__l_trt__:true,data_format:"NCHW",dilations:[1,1],groups:192,padding_algorithm:"EXPLICIT",paddings:[2,2],stop_gradient:[false],strides:[1,1],struct_name:"/PPHGNetV2/HGV2_Stage_2/Sequential/HGV2_Block_1/LightConvBNAct_1/ConvBNAct_1/Conv2D/"} : (tensor<-1x192x6x-1xf32>, tensor<192x1x5x5xf32>) -> tensor<-1x192x6x-1xf32>
    (%540, %541, %542, %543, %544, %545) = "pd_op.batch_norm_" (%538, %546, %547, %548, %549) {__l_trt__:true,data_format:"NCHW",epsilon:1e-05,is_test:true,momentum:0.9,stop_gradient:[false,false,false,false,false,false],struct_name:"/PPHGNetV2/HGV2_Stage_2/Sequential/HGV2_Block_1/LightConvBNAct_1/ConvBNAct_1/BatchNorm2D/",trainable_statistics:false,use_global_stats:true} : (tensor<-1x192x6x-1xf32>, tensor<192xf32>, tensor<192xf32>, tensor<192xf32>, tensor<192xf32>) -> tensor<-1x192x6x-1xf32>, tensor<192xf32>, tensor<192xf32>, tensor<192xf32>, tensor<192xf32>, tensor<-1xu8>
    (%550) = "pd_op.relu" (%540) {__l_trt__:true,stop_gradient:[false],struct_name:"/PPHGNetV2/HGV2_Stage_2/Sequential/HGV2_Block_1/LightConvBNAct_1/ConvBNAct_1/ReLU/"} : (tensor<-1x192x6x-1xf32>) -> tensor<-1x192x6x-1xf32>
    (%551) = "pd_op.conv2d" (%550, %552) {__l_trt__:true,data_format:"NCHW",dilations:[1,1],groups:1,padding_algorithm:"EXPLICIT",paddings:[0,0],stop_gradient:[false],strides:[1,1],struct_name:"/PPHGNetV2/HGV2_Stage_2/Sequential/HGV2_Block_1/LightConvBNAct_2/ConvBNAct/Conv2D/"} : (tensor<-1x192x6x-1xf32>, tensor<192x192x1x1xf32>) -> tensor<-1x192x6x-1xf32>
    (%553, %554, %555, %556, %557, %558) = "pd_op.batch_norm_" (%551, %559, %560, %561, %562) {__l_trt__:true,data_format:"NCHW",epsilon:1e-05,is_test:true,momentum:0.9,stop_gradient:[false,false,false,false,false,false],struct_name:"/PPHGNetV2/HGV2_Stage_2/Sequential/HGV2_Block_1/LightConvBNAct_2/ConvBNAct/BatchNorm2D/",trainable_statistics:false,use_global_stats:true} : (tensor<-1x192x6x-1xf32>, tensor<192xf32>, tensor<192xf32>, tensor<192xf32>, tensor<192xf32>) -> tensor<-1x192x6x-1xf32>, tensor<192xf32>, tensor<192xf32>, tensor<192xf32>, tensor<192xf32>, tensor<-1xu8>
    (%563) = "pd_op.depthwise_conv2d" (%553, %564) {__l_trt__:true,data_format:"NCHW",dilations:[1,1],groups:192,padding_algorithm:"EXPLICIT",paddings:[2,2],stop_gradient:[false],strides:[1,1],struct_name:"/PPHGNetV2/HGV2_Stage_2/Sequential/HGV2_Block_1/LightConvBNAct_2/ConvBNAct_1/Conv2D/"} : (tensor<-1x192x6x-1xf32>, tensor<192x1x5x5xf32>) -> tensor<-1x192x6x-1xf32>
    (%565, %566, %567, %568, %569, %570) = "pd_op.batch_norm_" (%563, %571, %572, %573, %574) {__l_trt__:true,data_format:"NCHW",epsilon:1e-05,is_test:true,momentum:0.9,stop_gradient:[false,false,false,false,false,false],struct_name:"/PPHGNetV2/HGV2_Stage_2/Sequential/HGV2_Block_1/LightConvBNAct_2/ConvBNAct_1/BatchNorm2D/",trainable_statistics:false,use_global_stats:true} : (tensor<-1x192x6x-1xf32>, tensor<192xf32>, tensor<192xf32>, tensor<192xf32>, tensor<192xf32>) -> tensor<-1x192x6x-1xf32>, tensor<192xf32>, tensor<192xf32>, tensor<192xf32>, tensor<192xf32>, tensor<-1xu8>
    (%575) = "pd_op.relu" (%565) {__l_trt__:true,stop_gradient:[false],struct_name:"/PPHGNetV2/HGV2_Stage_2/Sequential/HGV2_Block_1/LightConvBNAct_2/ConvBNAct_1/ReLU/"} : (tensor<-1x192x6x-1xf32>) -> tensor<-1x192x6x-1xf32>
    (%576) = "pd_op.conv2d" (%575, %577) {__l_trt__:true,data_format:"NCHW",dilations:[1,1],groups:1,padding_algorithm:"EXPLICIT",paddings:[0,0],stop_gradient:[false],strides:[1,1],struct_name:"/PPHGNetV2/HGV2_Stage_2/Sequential/HGV2_Block_1/LightConvBNAct_3/ConvBNAct/Conv2D/"} : (tensor<-1x192x6x-1xf32>, tensor<192x192x1x1xf32>) -> tensor<-1x192x6x-1xf32>
    (%578, %579, %580, %581, %582, %583) = "pd_op.batch_norm_" (%576, %584, %585, %586, %587) {__l_trt__:true,data_format:"NCHW",epsilon:1e-05,is_test:true,momentum:0.9,stop_gradient:[false,false,false,false,false,false],struct_name:"/PPHGNetV2/HGV2_Stage_2/Sequential/HGV2_Block_1/LightConvBNAct_3/ConvBNAct/BatchNorm2D/",trainable_statistics:false,use_global_stats:true} : (tensor<-1x192x6x-1xf32>, tensor<192xf32>, tensor<192xf32>, tensor<192xf32>, tensor<192xf32>) -> tensor<-1x192x6x-1xf32>, tensor<192xf32>, tensor<192xf32>, tensor<192xf32>, tensor<192xf32>, tensor<-1xu8>
    (%588) = "pd_op.depthwise_conv2d" (%578, %589) {__l_trt__:true,data_format:"NCHW",dilations:[1,1],groups:192,padding_algorithm:"EXPLICIT",paddings:[2,2],stop_gradient:[false],strides:[1,1],struct_name:"/PPHGNetV2/HGV2_Stage_2/Sequential/HGV2_Block_1/LightConvBNAct_3/ConvBNAct_1/Conv2D/"} : (tensor<-1x192x6x-1xf32>, tensor<192x1x5x5xf32>) -> tensor<-1x192x6x-1xf32>
    (%590, %591, %592, %593, %594, %595) = "pd_op.batch_norm_" (%588, %596, %597, %598, %599) {__l_trt__:true,data_format:"NCHW",epsilon:1e-05,is_test:true,momentum:0.9,stop_gradient:[false,false,false,false,false,false],struct_name:"/PPHGNetV2/HGV2_Stage_2/Sequential/HGV2_Block_1/LightConvBNAct_3/ConvBNAct_1/BatchNorm2D/",trainable_statistics:false,use_global_stats:true} : (tensor<-1x192x6x-1xf32>, tensor<192xf32>, tensor<192xf32>, tensor<192xf32>, tensor<192xf32>) -> tensor<-1x192x6x-1xf32>, tensor<192xf32>, tensor<192xf32>, tensor<192xf32>, tensor<192xf32>, tensor<-1xu8>
    (%600) = "pd_op.relu" (%590) {__l_trt__:true,stop_gradient:[false],struct_name:"/PPHGNetV2/HGV2_Stage_2/Sequential/HGV2_Block_1/LightConvBNAct_3/ConvBNAct_1/ReLU/"} : (tensor<-1x192x6x-1xf32>) -> tensor<-1x192x6x-1xf32>
    (%601) = "pd_op.conv2d" (%600, %602) {__l_trt__:true,data_format:"NCHW",dilations:[1,1],groups:1,padding_algorithm:"EXPLICIT",paddings:[0,0],stop_gradient:[false],strides:[1,1],struct_name:"/PPHGNetV2/HGV2_Stage_2/Sequential/HGV2_Block_1/LightConvBNAct_4/ConvBNAct/Conv2D/"} : (tensor<-1x192x6x-1xf32>, tensor<192x192x1x1xf32>) -> tensor<-1x192x6x-1xf32>
    (%603, %604, %605, %606, %607, %608) = "pd_op.batch_norm_" (%601, %609, %610, %611, %612) {__l_trt__:true,data_format:"NCHW",epsilon:1e-05,is_test:true,momentum:0.9,stop_gradient:[false,false,false,false,false,false],struct_name:"/PPHGNetV2/HGV2_Stage_2/Sequential/HGV2_Block_1/LightConvBNAct_4/ConvBNAct/BatchNorm2D/",trainable_statistics:false,use_global_stats:true} : (tensor<-1x192x6x-1xf32>, tensor<192xf32>, tensor<192xf32>, tensor<192xf32>, tensor<192xf32>) -> tensor<-1x192x6x-1xf32>, tensor<192xf32>, tensor<192xf32>, tensor<192xf32>, tensor<192xf32>, tensor<-1xu8>
    (%613) = "pd_op.depthwise_conv2d" (%603, %614) {__l_trt__:true,data_format:"NCHW",dilations:[1,1],groups:192,padding_algorithm:"EXPLICIT",paddings:[2,2],stop_gradient:[false],strides:[1,1],struct_name:"/PPHGNetV2/HGV2_Stage_2/Sequential/HGV2_Block_1/LightConvBNAct_4/ConvBNAct_1/Conv2D/"} : (tensor<-1x192x6x-1xf32>, tensor<192x1x5x5xf32>) -> tensor<-1x192x6x-1xf32>
    (%615, %616, %617, %618, %619, %620) = "pd_op.batch_norm_" (%613, %621, %622, %623, %624) {__l_trt__:true,data_format:"NCHW",epsilon:1e-05,is_test:true,momentum:0.9,stop_gradient:[false,false,false,false,false,false],struct_name:"/PPHGNetV2/HGV2_Stage_2/Sequential/HGV2_Block_1/LightConvBNAct_4/ConvBNAct_1/BatchNorm2D/",trainable_statistics:false,use_global_stats:true} : (tensor<-1x192x6x-1xf32>, tensor<192xf32>, tensor<192xf32>, tensor<192xf32>, tensor<192xf32>) -> tensor<-1x192x6x-1xf32>, tensor<192xf32>, tensor<192xf32>, tensor<192xf32>, tensor<192xf32>, tensor<-1xu8>
    (%625) = "pd_op.relu" (%615) {__l_trt__:true,stop_gradient:[false],struct_name:"/PPHGNetV2/HGV2_Stage_2/Sequential/HGV2_Block_1/LightConvBNAct_4/ConvBNAct_1/ReLU/"} : (tensor<-1x192x6x-1xf32>) -> tensor<-1x192x6x-1xf32>
    (%626) = "pd_op.conv2d" (%625, %627) {__l_trt__:true,data_format:"NCHW",dilations:[1,1],groups:1,padding_algorithm:"EXPLICIT",paddings:[0,0],stop_gradient:[false],strides:[1,1],struct_name:"/PPHGNetV2/HGV2_Stage_2/Sequential/HGV2_Block_1/LightConvBNAct_5/ConvBNAct/Conv2D/"} : (tensor<-1x192x6x-1xf32>, tensor<192x192x1x1xf32>) -> tensor<-1x192x6x-1xf32>
    (%628, %629, %630, %631, %632, %633) = "pd_op.batch_norm_" (%626, %634, %635, %636, %637) {__l_trt__:true,data_format:"NCHW",epsilon:1e-05,is_test:true,momentum:0.9,stop_gradient:[false,false,false,false,false,false],struct_name:"/PPHGNetV2/HGV2_Stage_2/Sequential/HGV2_Block_1/LightConvBNAct_5/ConvBNAct/BatchNorm2D/",trainable_statistics:false,use_global_stats:true} : (tensor<-1x192x6x-1xf32>, tensor<192xf32>, tensor<192xf32>, tensor<192xf32>, tensor<192xf32>) -> tensor<-1x192x6x-1xf32>, tensor<192xf32>, tensor<192xf32>, tensor<192xf32>, tensor<192xf32>, tensor<-1xu8>
    (%638) = "pd_op.depthwise_conv2d" (%628, %639) {__l_trt__:true,data_format:"NCHW",dilations:[1,1],groups:192,padding_algorithm:"EXPLICIT",paddings:[2,2],stop_gradient:[false],strides:[1,1],struct_name:"/PPHGNetV2/HGV2_Stage_2/Sequential/HGV2_Block_1/LightConvBNAct_5/ConvBNAct_1/Conv2D/"} : (tensor<-1x192x6x-1xf32>, tensor<192x1x5x5xf32>) -> tensor<-1x192x6x-1xf32>
    (%640, %641, %642, %643, %644, %645) = "pd_op.batch_norm_" (%638, %646, %647, %648, %649) {__l_trt__:true,data_format:"NCHW",epsilon:1e-05,is_test:true,momentum:0.9,stop_gradient:[false,false,false,false,false,false],struct_name:"/PPHGNetV2/HGV2_Stage_2/Sequential/HGV2_Block_1/LightConvBNAct_5/ConvBNAct_1/BatchNorm2D/",trainable_statistics:false,use_global_stats:true} : (tensor<-1x192x6x-1xf32>, tensor<192xf32>, tensor<192xf32>, tensor<192xf32>, tensor<192xf32>) -> tensor<-1x192x6x-1xf32>, tensor<192xf32>, tensor<192xf32>, tensor<192xf32>, tensor<192xf32>, tensor<-1xu8>
    (%650) = "pd_op.relu" (%640) {__l_trt__:true,stop_gradient:[false],struct_name:"/PPHGNetV2/HGV2_Stage_2/Sequential/HGV2_Block_1/LightConvBNAct_5/ConvBNAct_1/ReLU/"} : (tensor<-1x192x6x-1xf32>) -> tensor<-1x192x6x-1xf32>
    (%651) = "builtin.combine" (%500, %525, %550, %575, %600, %625, %650) {__l_trt__:true,stop_gradient:[false],struct_name:"/PPHGNetV2/HGV2_Stage_2/Sequential/HGV2_Block_1/"} : (tensor<-1x1024x6x-1xf32>, tensor<-1x192x6x-1xf32>, tensor<-1x192x6x-1xf32>, tensor<-1x192x6x-1xf32>, tensor<-1x192x6x-1xf32>, tensor<-1x192x6x-1xf32>, tensor<-1x192x6x-1xf32>) -> vec[tensor<-1x1024x6x-1xf32>,tensor<-1x192x6x-1xf32>,tensor<-1x192x6x-1xf32>,tensor<-1x192x6x-1xf32>,tensor<-1x192x6x-1xf32>,tensor<-1x192x6x-1xf32>,tensor<-1x192x6x-1xf32>]
    (%652) = "pd_op.concat" (%651, %653) {__l_trt__:true,stop_gradient:[false],struct_name:"/PPHGNetV2/HGV2_Stage_2/Sequential/HGV2_Block_1/"} : (vec[tensor<-1x1024x6x-1xf32>,tensor<-1x192x6x-1xf32>,tensor<-1x192x6x-1xf32>,tensor<-1x192x6x-1xf32>,tensor<-1x192x6x-1xf32>,tensor<-1x192x6x-1xf32>,tensor<-1x192x6x-1xf32>], tensor<1xi32>) -> tensor<-1x2176x6x-1xf32>
    (%654) = "pd_op.conv2d" (%652, %655) {__l_trt__:true,data_format:"NCHW",dilations:[1,1],groups:1,padding_algorithm:"EXPLICIT",paddings:[0,0],stop_gradient:[false],strides:[1,1],struct_name:"/PPHGNetV2/HGV2_Stage_2/Sequential/HGV2_Block_1/ConvBNAct/Conv2D/"} : (tensor<-1x2176x6x-1xf32>, tensor<512x2176x1x1xf32>) -> tensor<-1x512x6x-1xf32>
    (%656, %657, %658, %659, %660, %661) = "pd_op.batch_norm_" (%654, %662, %663, %664, %665) {__l_trt__:true,data_format:"NCHW",epsilon:1e-05,is_test:true,momentum:0.9,stop_gradient:[false,false,false,false,false,false],struct_name:"/PPHGNetV2/HGV2_Stage_2/Sequential/HGV2_Block_1/ConvBNAct/BatchNorm2D/",trainable_statistics:false,use_global_stats:true} : (tensor<-1x512x6x-1xf32>, tensor<512xf32>, tensor<512xf32>, tensor<512xf32>, tensor<512xf32>) -> tensor<-1x512x6x-1xf32>, tensor<512xf32>, tensor<512xf32>, tensor<512xf32>, tensor<512xf32>, tensor<-1xu8>
    (%666) = "pd_op.relu" (%656) {__l_trt__:true,stop_gradient:[false],struct_name:"/PPHGNetV2/HGV2_Stage_2/Sequential/HGV2_Block_1/ConvBNAct/ReLU/"} : (tensor<-1x512x6x-1xf32>) -> tensor<-1x512x6x-1xf32>
    (%667) = "pd_op.conv2d" (%666, %668) {__l_trt__:true,data_format:"NCHW",dilations:[1,1],groups:1,padding_algorithm:"EXPLICIT",paddings:[0,0],stop_gradient:[false],strides:[1,1],struct_name:"/PPHGNetV2/HGV2_Stage_2/Sequential/HGV2_Block_1/ConvBNAct_1/Conv2D/"} : (tensor<-1x512x6x-1xf32>, tensor<1024x512x1x1xf32>) -> tensor<-1x1024x6x-1xf32>
    (%669, %670, %671, %672, %673, %674) = "pd_op.batch_norm_" (%667, %675, %676, %677, %678) {__l_trt__:true,data_format:"NCHW",epsilon:1e-05,is_test:true,momentum:0.9,stop_gradient:[false,false,false,false,false,false],struct_name:"/PPHGNetV2/HGV2_Stage_2/Sequential/HGV2_Block_1/ConvBNAct_1/BatchNorm2D/",trainable_statistics:false,use_global_stats:true} : (tensor<-1x1024x6x-1xf32>, tensor<1024xf32>, tensor<1024xf32>, tensor<1024xf32>, tensor<1024xf32>) -> tensor<-1x1024x6x-1xf32>, tensor<1024xf32>, tensor<1024xf32>, tensor<1024xf32>, tensor<1024xf32>, tensor<-1xu8>
    (%679) = "pd_op.relu" (%669) {__l_trt__:true,stop_gradient:[false],struct_name:"/PPHGNetV2/HGV2_Stage_2/Sequential/HGV2_Block_1/ConvBNAct_1/ReLU/"} : (tensor<-1x1024x6x-1xf32>) -> tensor<-1x1024x6x-1xf32>
    (%680) = "pd_op.add" (%679, %500) {__l_trt__:true,stop_gradient:[false],struct_name:"/PPHGNetV2/HGV2_Stage_2/Sequential/HGV2_Block_1/"} : (tensor<-1x1024x6x-1xf32>, tensor<-1x1024x6x-1xf32>) -> tensor<-1x1024x6x-1xf32>
    (%681) = "pd_op.conv2d" (%680, %682) {__l_trt__:true,data_format:"NCHW",dilations:[1,1],groups:1,padding_algorithm:"EXPLICIT",paddings:[0,0],stop_gradient:[false],strides:[1,1],struct_name:"/PPHGNetV2/HGV2_Stage_2/Sequential/HGV2_Block_2/LightConvBNAct/ConvBNAct/Conv2D/"} : (tensor<-1x1024x6x-1xf32>, tensor<192x1024x1x1xf32>) -> tensor<-1x192x6x-1xf32>
    (%683, %684, %685, %686, %687, %688) = "pd_op.batch_norm_" (%681, %689, %690, %691, %692) {__l_trt__:true,data_format:"NCHW",epsilon:1e-05,is_test:true,momentum:0.9,stop_gradient:[false,false,false,false,false,false],struct_name:"/PPHGNetV2/HGV2_Stage_2/Sequential/HGV2_Block_2/LightConvBNAct/ConvBNAct/BatchNorm2D/",trainable_statistics:false,use_global_stats:true} : (tensor<-1x192x6x-1xf32>, tensor<192xf32>, tensor<192xf32>, tensor<192xf32>, tensor<192xf32>) -> tensor<-1x192x6x-1xf32>, tensor<192xf32>, tensor<192xf32>, tensor<192xf32>, tensor<192xf32>, tensor<-1xu8>
    (%693) = "pd_op.depthwise_conv2d" (%683, %694) {__l_trt__:true,data_format:"NCHW",dilations:[1,1],groups:192,padding_algorithm:"EXPLICIT",paddings:[2,2],stop_gradient:[false],strides:[1,1],struct_name:"/PPHGNetV2/HGV2_Stage_2/Sequential/HGV2_Block_2/LightConvBNAct/ConvBNAct_1/Conv2D/"} : (tensor<-1x192x6x-1xf32>, tensor<192x1x5x5xf32>) -> tensor<-1x192x6x-1xf32>
    (%695, %696, %697, %698, %699, %700) = "pd_op.batch_norm_" (%693, %701, %702, %703, %704) {__l_trt__:true,data_format:"NCHW",epsilon:1e-05,is_test:true,momentum:0.9,stop_gradient:[false,false,false,false,false,false],struct_name:"/PPHGNetV2/HGV2_Stage_2/Sequential/HGV2_Block_2/LightConvBNAct/ConvBNAct_1/BatchNorm2D/",trainable_statistics:false,use_global_stats:true} : (tensor<-1x192x6x-1xf32>, tensor<192xf32>, tensor<192xf32>, tensor<192xf32>, tensor<192xf32>) -> tensor<-1x192x6x-1xf32>, tensor<192xf32>, tensor<192xf32>, tensor<192xf32>, tensor<192xf32>, tensor<-1xu8>
    (%705) = "pd_op.relu" (%695) {__l_trt__:true,stop_gradient:[false],struct_name:"/PPHGNetV2/HGV2_Stage_2/Sequential/HGV2_Block_2/LightConvBNAct/ConvBNAct_1/ReLU/"} : (tensor<-1x192x6x-1xf32>) -> tensor<-1x192x6x-1xf32>
    (%706) = "pd_op.conv2d" (%705, %707) {__l_trt__:true,data_format:"NCHW",dilations:[1,1],groups:1,padding_algorithm:"EXPLICIT",paddings:[0,0],stop_gradient:[false],strides:[1,1],struct_name:"/PPHGNetV2/HGV2_Stage_2/Sequential/HGV2_Block_2/LightConvBNAct_1/ConvBNAct/Conv2D/"} : (tensor<-1x192x6x-1xf32>, tensor<192x192x1x1xf32>) -> tensor<-1x192x6x-1xf32>
    (%708, %709, %710, %711, %712, %713) = "pd_op.batch_norm_" (%706, %714, %715, %716, %717) {__l_trt__:true,data_format:"NCHW",epsilon:1e-05,is_test:true,momentum:0.9,stop_gradient:[false,false,false,false,false,false],struct_name:"/PPHGNetV2/HGV2_Stage_2/Sequential/HGV2_Block_2/LightConvBNAct_1/ConvBNAct/BatchNorm2D/",trainable_statistics:false,use_global_stats:true} : (tensor<-1x192x6x-1xf32>, tensor<192xf32>, tensor<192xf32>, tensor<192xf32>, tensor<192xf32>) -> tensor<-1x192x6x-1xf32>, tensor<192xf32>, tensor<192xf32>, tensor<192xf32>, tensor<192xf32>, tensor<-1xu8>
    (%718) = "pd_op.depthwise_conv2d" (%708, %719) {__l_trt__:true,data_format:"NCHW",dilations:[1,1],groups:192,padding_algorithm:"EXPLICIT",paddings:[2,2],stop_gradient:[false],strides:[1,1],struct_name:"/PPHGNetV2/HGV2_Stage_2/Sequential/HGV2_Block_2/LightConvBNAct_1/ConvBNAct_1/Conv2D/"} : (tensor<-1x192x6x-1xf32>, tensor<192x1x5x5xf32>) -> tensor<-1x192x6x-1xf32>
    (%720, %721, %722, %723, %724, %725) = "pd_op.batch_norm_" (%718, %726, %727, %728, %729) {__l_trt__:true,data_format:"NCHW",epsilon:1e-05,is_test:true,momentum:0.9,stop_gradient:[false,false,false,false,false,false],struct_name:"/PPHGNetV2/HGV2_Stage_2/Sequential/HGV2_Block_2/LightConvBNAct_1/ConvBNAct_1/BatchNorm2D/",trainable_statistics:false,use_global_stats:true} : (tensor<-1x192x6x-1xf32>, tensor<192xf32>, tensor<192xf32>, tensor<192xf32>, tensor<192xf32>) -> tensor<-1x192x6x-1xf32>, tensor<192xf32>, tensor<192xf32>, tensor<192xf32>, tensor<192xf32>, tensor<-1xu8>
    (%730) = "pd_op.relu" (%720) {__l_trt__:true,stop_gradient:[false],struct_name:"/PPHGNetV2/HGV2_Stage_2/Sequential/HGV2_Block_2/LightConvBNAct_1/ConvBNAct_1/ReLU/"} : (tensor<-1x192x6x-1xf32>) -> tensor<-1x192x6x-1xf32>
    (%731) = "pd_op.conv2d" (%730, %732) {__l_trt__:true,data_format:"NCHW",dilations:[1,1],groups:1,padding_algorithm:"EXPLICIT",paddings:[0,0],stop_gradient:[false],strides:[1,1],struct_name:"/PPHGNetV2/HGV2_Stage_2/Sequential/HGV2_Block_2/LightConvBNAct_2/ConvBNAct/Conv2D/"} : (tensor<-1x192x6x-1xf32>, tensor<192x192x1x1xf32>) -> tensor<-1x192x6x-1xf32>
    (%733, %734, %735, %736, %737, %738) = "pd_op.batch_norm_" (%731, %739, %740, %741, %742) {__l_trt__:true,data_format:"NCHW",epsilon:1e-05,is_test:true,momentum:0.9,stop_gradient:[false,false,false,false,false,false],struct_name:"/PPHGNetV2/HGV2_Stage_2/Sequential/HGV2_Block_2/LightConvBNAct_2/ConvBNAct/BatchNorm2D/",trainable_statistics:false,use_global_stats:true} : (tensor<-1x192x6x-1xf32>, tensor<192xf32>, tensor<192xf32>, tensor<192xf32>, tensor<192xf32>) -> tensor<-1x192x6x-1xf32>, tensor<192xf32>, tensor<192xf32>, tensor<192xf32>, tensor<192xf32>, tensor<-1xu8>
    (%743) = "pd_op.depthwise_conv2d" (%733, %744) {__l_trt__:true,data_format:"NCHW",dilations:[1,1],groups:192,padding_algorithm:"EXPLICIT",paddings:[2,2],stop_gradient:[false],strides:[1,1],struct_name:"/PPHGNetV2/HGV2_Stage_2/Sequential/HGV2_Block_2/LightConvBNAct_2/ConvBNAct_1/Conv2D/"} : (tensor<-1x192x6x-1xf32>, tensor<192x1x5x5xf32>) -> tensor<-1x192x6x-1xf32>
    (%745, %746, %747, %748, %749, %750) = "pd_op.batch_norm_" (%743, %751, %752, %753, %754) {__l_trt__:true,data_format:"NCHW",epsilon:1e-05,is_test:true,momentum:0.9,stop_gradient:[false,false,false,false,false,false],struct_name:"/PPHGNetV2/HGV2_Stage_2/Sequential/HGV2_Block_2/LightConvBNAct_2/ConvBNAct_1/BatchNorm2D/",trainable_statistics:false,use_global_stats:true} : (tensor<-1x192x6x-1xf32>, tensor<192xf32>, tensor<192xf32>, tensor<192xf32>, tensor<192xf32>) -> tensor<-1x192x6x-1xf32>, tensor<192xf32>, tensor<192xf32>, tensor<192xf32>, tensor<192xf32>, tensor<-1xu8>
    (%755) = "pd_op.relu" (%745) {__l_trt__:true,stop_gradient:[false],struct_name:"/PPHGNetV2/HGV2_Stage_2/Sequential/HGV2_Block_2/LightConvBNAct_2/ConvBNAct_1/ReLU/"} : (tensor<-1x192x6x-1xf32>) -> tensor<-1x192x6x-1xf32>
    (%756) = "pd_op.conv2d" (%755, %757) {__l_trt__:true,data_format:"NCHW",dilations:[1,1],groups:1,padding_algorithm:"EXPLICIT",paddings:[0,0],stop_gradient:[false],strides:[1,1],struct_name:"/PPHGNetV2/HGV2_Stage_2/Sequential/HGV2_Block_2/LightConvBNAct_3/ConvBNAct/Conv2D/"} : (tensor<-1x192x6x-1xf32>, tensor<192x192x1x1xf32>) -> tensor<-1x192x6x-1xf32>
    (%758, %759, %760, %761, %762, %763) = "pd_op.batch_norm_" (%756, %764, %765, %766, %767) {__l_trt__:true,data_format:"NCHW",epsilon:1e-05,is_test:true,momentum:0.9,stop_gradient:[false,false,false,false,false,false],struct_name:"/PPHGNetV2/HGV2_Stage_2/Sequential/HGV2_Block_2/LightConvBNAct_3/ConvBNAct/BatchNorm2D/",trainable_statistics:false,use_global_stats:true} : (tensor<-1x192x6x-1xf32>, tensor<192xf32>, tensor<192xf32>, tensor<192xf32>, tensor<192xf32>) -> tensor<-1x192x6x-1xf32>, tensor<192xf32>, tensor<192xf32>, tensor<192xf32>, tensor<192xf32>, tensor<-1xu8>
    (%768) = "pd_op.depthwise_conv2d" (%758, %769) {__l_trt__:true,data_format:"NCHW",dilations:[1,1],groups:192,padding_algorithm:"EXPLICIT",paddings:[2,2],stop_gradient:[false],strides:[1,1],struct_name:"/PPHGNetV2/HGV2_Stage_2/Sequential/HGV2_Block_2/LightConvBNAct_3/ConvBNAct_1/Conv2D/"} : (tensor<-1x192x6x-1xf32>, tensor<192x1x5x5xf32>) -> tensor<-1x192x6x-1xf32>
    (%770, %771, %772, %773, %774, %775) = "pd_op.batch_norm_" (%768, %776, %777, %778, %779) {__l_trt__:true,data_format:"NCHW",epsilon:1e-05,is_test:true,momentum:0.9,stop_gradient:[false,false,false,false,false,false],struct_name:"/PPHGNetV2/HGV2_Stage_2/Sequential/HGV2_Block_2/LightConvBNAct_3/ConvBNAct_1/BatchNorm2D/",trainable_statistics:false,use_global_stats:true} : (tensor<-1x192x6x-1xf32>, tensor<192xf32>, tensor<192xf32>, tensor<192xf32>, tensor<192xf32>) -> tensor<-1x192x6x-1xf32>, tensor<192xf32>, tensor<192xf32>, tensor<192xf32>, tensor<192xf32>, tensor<-1xu8>
    (%780) = "pd_op.relu" (%770) {__l_trt__:true,stop_gradient:[false],struct_name:"/PPHGNetV2/HGV2_Stage_2/Sequential/HGV2_Block_2/LightConvBNAct_3/ConvBNAct_1/ReLU/"} : (tensor<-1x192x6x-1xf32>) -> tensor<-1x192x6x-1xf32>
    (%781) = "pd_op.conv2d" (%780, %782) {__l_trt__:true,data_format:"NCHW",dilations:[1,1],groups:1,padding_algorithm:"EXPLICIT",paddings:[0,0],stop_gradient:[false],strides:[1,1],struct_name:"/PPHGNetV2/HGV2_Stage_2/Sequential/HGV2_Block_2/LightConvBNAct_4/ConvBNAct/Conv2D/"} : (tensor<-1x192x6x-1xf32>, tensor<192x192x1x1xf32>) -> tensor<-1x192x6x-1xf32>
    (%783, %784, %785, %786, %787, %788) = "pd_op.batch_norm_" (%781, %789, %790, %791, %792) {__l_trt__:true,data_format:"NCHW",epsilon:1e-05,is_test:true,momentum:0.9,stop_gradient:[false,false,false,false,false,false],struct_name:"/PPHGNetV2/HGV2_Stage_2/Sequential/HGV2_Block_2/LightConvBNAct_4/ConvBNAct/BatchNorm2D/",trainable_statistics:false,use_global_stats:true} : (tensor<-1x192x6x-1xf32>, tensor<192xf32>, tensor<192xf32>, tensor<192xf32>, tensor<192xf32>) -> tensor<-1x192x6x-1xf32>, tensor<192xf32>, tensor<192xf32>, tensor<192xf32>, tensor<192xf32>, tensor<-1xu8>
    (%793) = "pd_op.depthwise_conv2d" (%783, %794) {__l_trt__:true,data_format:"NCHW",dilations:[1,1],groups:192,padding_algorithm:"EXPLICIT",paddings:[2,2],stop_gradient:[false],strides:[1,1],struct_name:"/PPHGNetV2/HGV2_Stage_2/Sequential/HGV2_Block_2/LightConvBNAct_4/ConvBNAct_1/Conv2D/"} : (tensor<-1x192x6x-1xf32>, tensor<192x1x5x5xf32>) -> tensor<-1x192x6x-1xf32>
    (%795, %796, %797, %798, %799, %800) = "pd_op.batch_norm_" (%793, %801, %802, %803, %804) {__l_trt__:true,data_format:"NCHW",epsilon:1e-05,is_test:true,momentum:0.9,stop_gradient:[false,false,false,false,false,false],struct_name:"/PPHGNetV2/HGV2_Stage_2/Sequential/HGV2_Block_2/LightConvBNAct_4/ConvBNAct_1/BatchNorm2D/",trainable_statistics:false,use_global_stats:true} : (tensor<-1x192x6x-1xf32>, tensor<192xf32>, tensor<192xf32>, tensor<192xf32>, tensor<192xf32>) -> tensor<-1x192x6x-1xf32>, tensor<192xf32>, tensor<192xf32>, tensor<192xf32>, tensor<192xf32>, tensor<-1xu8>
    (%805) = "pd_op.relu" (%795) {__l_trt__:true,stop_gradient:[false],struct_name:"/PPHGNetV2/HGV2_Stage_2/Sequential/HGV2_Block_2/LightConvBNAct_4/ConvBNAct_1/ReLU/"} : (tensor<-1x192x6x-1xf32>) -> tensor<-1x192x6x-1xf32>
    (%806) = "pd_op.conv2d" (%805, %807) {__l_trt__:true,data_format:"NCHW",dilations:[1,1],groups:1,padding_algorithm:"EXPLICIT",paddings:[0,0],stop_gradient:[false],strides:[1,1],struct_name:"/PPHGNetV2/HGV2_Stage_2/Sequential/HGV2_Block_2/LightConvBNAct_5/ConvBNAct/Conv2D/"} : (tensor<-1x192x6x-1xf32>, tensor<192x192x1x1xf32>) -> tensor<-1x192x6x-1xf32>
    (%808, %809, %810, %811, %812, %813) = "pd_op.batch_norm_" (%806, %814, %815, %816, %817) {__l_trt__:true,data_format:"NCHW",epsilon:1e-05,is_test:true,momentum:0.9,stop_gradient:[false,false,false,false,false,false],struct_name:"/PPHGNetV2/HGV2_Stage_2/Sequential/HGV2_Block_2/LightConvBNAct_5/ConvBNAct/BatchNorm2D/",trainable_statistics:false,use_global_stats:true} : (tensor<-1x192x6x-1xf32>, tensor<192xf32>, tensor<192xf32>, tensor<192xf32>, tensor<192xf32>) -> tensor<-1x192x6x-1xf32>, tensor<192xf32>, tensor<192xf32>, tensor<192xf32>, tensor<192xf32>, tensor<-1xu8>
    (%818) = "pd_op.depthwise_conv2d" (%808, %819) {__l_trt__:true,data_format:"NCHW",dilations:[1,1],groups:192,padding_algorithm:"EXPLICIT",paddings:[2,2],stop_gradient:[false],strides:[1,1],struct_name:"/PPHGNetV2/HGV2_Stage_2/Sequential/HGV2_Block_2/LightConvBNAct_5/ConvBNAct_1/Conv2D/"} : (tensor<-1x192x6x-1xf32>, tensor<192x1x5x5xf32>) -> tensor<-1x192x6x-1xf32>
    (%820, %821, %822, %823, %824, %825) = "pd_op.batch_norm_" (%818, %826, %827, %828, %829) {__l_trt__:true,data_format:"NCHW",epsilon:1e-05,is_test:true,momentum:0.9,stop_gradient:[false,false,false,false,false,false],struct_name:"/PPHGNetV2/HGV2_Stage_2/Sequential/HGV2_Block_2/LightConvBNAct_5/ConvBNAct_1/BatchNorm2D/",trainable_statistics:false,use_global_stats:true} : (tensor<-1x192x6x-1xf32>, tensor<192xf32>, tensor<192xf32>, tensor<192xf32>, tensor<192xf32>) -> tensor<-1x192x6x-1xf32>, tensor<192xf32>, tensor<192xf32>, tensor<192xf32>, tensor<192xf32>, tensor<-1xu8>
    (%830) = "pd_op.relu" (%820) {__l_trt__:true,stop_gradient:[false],struct_name:"/PPHGNetV2/HGV2_Stage_2/Sequential/HGV2_Block_2/LightConvBNAct_5/ConvBNAct_1/ReLU/"} : (tensor<-1x192x6x-1xf32>) -> tensor<-1x192x6x-1xf32>
    (%831) = "builtin.combine" (%680, %705, %730, %755, %780, %805, %830) {__l_trt__:true,stop_gradient:[false],struct_name:"/PPHGNetV2/HGV2_Stage_2/Sequential/HGV2_Block_2/"} : (tensor<-1x1024x6x-1xf32>, tensor<-1x192x6x-1xf32>, tensor<-1x192x6x-1xf32>, tensor<-1x192x6x-1xf32>, tensor<-1x192x6x-1xf32>, tensor<-1x192x6x-1xf32>, tensor<-1x192x6x-1xf32>) -> vec[tensor<-1x1024x6x-1xf32>,tensor<-1x192x6x-1xf32>,tensor<-1x192x6x-1xf32>,tensor<-1x192x6x-1xf32>,tensor<-1x192x6x-1xf32>,tensor<-1x192x6x-1xf32>,tensor<-1x192x6x-1xf32>]
    (%832) = "pd_op.concat" (%831, %833) {__l_trt__:true,stop_gradient:[false],struct_name:"/PPHGNetV2/HGV2_Stage_2/Sequential/HGV2_Block_2/"} : (vec[tensor<-1x1024x6x-1xf32>,tensor<-1x192x6x-1xf32>,tensor<-1x192x6x-1xf32>,tensor<-1x192x6x-1xf32>,tensor<-1x192x6x-1xf32>,tensor<-1x192x6x-1xf32>,tensor<-1x192x6x-1xf32>], tensor<1xi32>) -> tensor<-1x2176x6x-1xf32>
    (%834) = "pd_op.conv2d" (%832, %835) {__l_trt__:true,data_format:"NCHW",dilations:[1,1],groups:1,padding_algorithm:"EXPLICIT",paddings:[0,0],stop_gradient:[false],strides:[1,1],struct_name:"/PPHGNetV2/HGV2_Stage_2/Sequential/HGV2_Block_2/ConvBNAct/Conv2D/"} : (tensor<-1x2176x6x-1xf32>, tensor<512x2176x1x1xf32>) -> tensor<-1x512x6x-1xf32>
    (%836, %837, %838, %839, %840, %841) = "pd_op.batch_norm_" (%834, %842, %843, %844, %845) {__l_trt__:true,data_format:"NCHW",epsilon:1e-05,is_test:true,momentum:0.9,stop_gradient:[false,false,false,false,false,false],struct_name:"/PPHGNetV2/HGV2_Stage_2/Sequential/HGV2_Block_2/ConvBNAct/BatchNorm2D/",trainable_statistics:false,use_global_stats:true} : (tensor<-1x512x6x-1xf32>, tensor<512xf32>, tensor<512xf32>, tensor<512xf32>, tensor<512xf32>) -> tensor<-1x512x6x-1xf32>, tensor<512xf32>, tensor<512xf32>, tensor<512xf32>, tensor<512xf32>, tensor<-1xu8>
    (%846) = "pd_op.relu" (%836) {__l_trt__:true,stop_gradient:[false],struct_name:"/PPHGNetV2/HGV2_Stage_2/Sequential/HGV2_Block_2/ConvBNAct/ReLU/"} : (tensor<-1x512x6x-1xf32>) -> tensor<-1x512x6x-1xf32>
    (%847) = "pd_op.conv2d" (%846, %848) {__l_trt__:true,data_format:"NCHW",dilations:[1,1],groups:1,padding_algorithm:"EXPLICIT",paddings:[0,0],stop_gradient:[false],strides:[1,1],struct_name:"/PPHGNetV2/HGV2_Stage_2/Sequential/HGV2_Block_2/ConvBNAct_1/Conv2D/"} : (tensor<-1x512x6x-1xf32>, tensor<1024x512x1x1xf32>) -> tensor<-1x1024x6x-1xf32>
    (%849, %850, %851, %852, %853, %854) = "pd_op.batch_norm_" (%847, %855, %856, %857, %858) {__l_trt__:true,data_format:"NCHW",epsilon:1e-05,is_test:true,momentum:0.9,stop_gradient:[false,false,false,false,false,false],struct_name:"/PPHGNetV2/HGV2_Stage_2/Sequential/HGV2_Block_2/ConvBNAct_1/BatchNorm2D/",trainable_statistics:false,use_global_stats:true} : (tensor<-1x1024x6x-1xf32>, tensor<1024xf32>, tensor<1024xf32>, tensor<1024xf32>, tensor<1024xf32>) -> tensor<-1x1024x6x-1xf32>, tensor<1024xf32>, tensor<1024xf32>, tensor<1024xf32>, tensor<1024xf32>, tensor<-1xu8>
    (%859) = "pd_op.relu" (%849) {__l_trt__:true,stop_gradient:[false],struct_name:"/PPHGNetV2/HGV2_Stage_2/Sequential/HGV2_Block_2/ConvBNAct_1/ReLU/"} : (tensor<-1x1024x6x-1xf32>) -> tensor<-1x1024x6x-1xf32>
    (%860) = "pd_op.add" (%859, %680) {__l_trt__:true,stop_gradient:[false],struct_name:"/PPHGNetV2/HGV2_Stage_2/Sequential/HGV2_Block_2/"} : (tensor<-1x1024x6x-1xf32>, tensor<-1x1024x6x-1xf32>) -> tensor<-1x1024x6x-1xf32>
    (%861) = "pd_op.depthwise_conv2d" (%860, %862) {__l_trt__:true,data_format:"NCHW",dilations:[1,1],groups:1024,padding_algorithm:"EXPLICIT",paddings:[1,1],stop_gradient:[false],strides:[2,1],struct_name:"/PPHGNetV2/HGV2_Stage_3/ConvBNAct/Conv2D/"} : (tensor<-1x1024x6x-1xf32>, tensor<1024x1x3x3xf32>) -> tensor<-1x1024x3x-1xf32>
    (%863, %864, %865, %866, %867, %868) = "pd_op.batch_norm_" (%861, %869, %870, %871, %872) {__l_trt__:true,data_format:"NCHW",epsilon:1e-05,is_test:true,momentum:0.9,stop_gradient:[false,false,false,false,false,false],struct_name:"/PPHGNetV2/HGV2_Stage_3/ConvBNAct/BatchNorm2D/",trainable_statistics:false,use_global_stats:true} : (tensor<-1x1024x3x-1xf32>, tensor<1024xf32>, tensor<1024xf32>, tensor<1024xf32>, tensor<1024xf32>) -> tensor<-1x1024x3x-1xf32>, tensor<1024xf32>, tensor<1024xf32>, tensor<1024xf32>, tensor<1024xf32>, tensor<-1xu8>
    (%873) = "pd_op.conv2d" (%863, %874) {__l_trt__:true,data_format:"NCHW",dilations:[1,1],groups:1,padding_algorithm:"EXPLICIT",paddings:[0,0],stop_gradient:[false],strides:[1,1],struct_name:"/PPHGNetV2/HGV2_Stage_3/Sequential/HGV2_Block/LightConvBNAct/ConvBNAct/Conv2D/"} : (tensor<-1x1024x3x-1xf32>, tensor<384x1024x1x1xf32>) -> tensor<-1x384x3x-1xf32>
    (%875, %876, %877, %878, %879, %880) = "pd_op.batch_norm_" (%873, %881, %882, %883, %884) {__l_trt__:true,data_format:"NCHW",epsilon:1e-05,is_test:true,momentum:0.9,stop_gradient:[false,false,false,false,false,false],struct_name:"/PPHGNetV2/HGV2_Stage_3/Sequential/HGV2_Block/LightConvBNAct/ConvBNAct/BatchNorm2D/",trainable_statistics:false,use_global_stats:true} : (tensor<-1x384x3x-1xf32>, tensor<384xf32>, tensor<384xf32>, tensor<384xf32>, tensor<384xf32>) -> tensor<-1x384x3x-1xf32>, tensor<384xf32>, tensor<384xf32>, tensor<384xf32>, tensor<384xf32>, tensor<-1xu8>
    (%885) = "pd_op.depthwise_conv2d" (%875, %886) {__l_trt__:true,data_format:"NCHW",dilations:[1,1],groups:384,padding_algorithm:"EXPLICIT",paddings:[2,2],stop_gradient:[false],strides:[1,1],struct_name:"/PPHGNetV2/HGV2_Stage_3/Sequential/HGV2_Block/LightConvBNAct/ConvBNAct_1/Conv2D/"} : (tensor<-1x384x3x-1xf32>, tensor<384x1x5x5xf32>) -> tensor<-1x384x3x-1xf32>
    (%887, %888, %889, %890, %891, %892) = "pd_op.batch_norm_" (%885, %893, %894, %895, %896) {__l_trt__:true,data_format:"NCHW",epsilon:1e-05,is_test:true,momentum:0.9,stop_gradient:[false,false,false,false,false,false],struct_name:"/PPHGNetV2/HGV2_Stage_3/Sequential/HGV2_Block/LightConvBNAct/ConvBNAct_1/BatchNorm2D/",trainable_statistics:false,use_global_stats:true} : (tensor<-1x384x3x-1xf32>, tensor<384xf32>, tensor<384xf32>, tensor<384xf32>, tensor<384xf32>) -> tensor<-1x384x3x-1xf32>, tensor<384xf32>, tensor<384xf32>, tensor<384xf32>, tensor<384xf32>, tensor<-1xu8>
    (%897) = "pd_op.relu" (%887) {__l_trt__:true,stop_gradient:[false],struct_name:"/PPHGNetV2/HGV2_Stage_3/Sequential/HGV2_Block/LightConvBNAct/ConvBNAct_1/ReLU/"} : (tensor<-1x384x3x-1xf32>) -> tensor<-1x384x3x-1xf32>
    (%898) = "pd_op.conv2d" (%897, %899) {__l_trt__:true,data_format:"NCHW",dilations:[1,1],groups:1,padding_algorithm:"EXPLICIT",paddings:[0,0],stop_gradient:[false],strides:[1,1],struct_name:"/PPHGNetV2/HGV2_Stage_3/Sequential/HGV2_Block/LightConvBNAct_1/ConvBNAct/Conv2D/"} : (tensor<-1x384x3x-1xf32>, tensor<384x384x1x1xf32>) -> tensor<-1x384x3x-1xf32>
    (%900, %901, %902, %903, %904, %905) = "pd_op.batch_norm_" (%898, %906, %907, %908, %909) {__l_trt__:true,data_format:"NCHW",epsilon:1e-05,is_test:true,momentum:0.9,stop_gradient:[false,false,false,false,false,false],struct_name:"/PPHGNetV2/HGV2_Stage_3/Sequential/HGV2_Block/LightConvBNAct_1/ConvBNAct/BatchNorm2D/",trainable_statistics:false,use_global_stats:true} : (tensor<-1x384x3x-1xf32>, tensor<384xf32>, tensor<384xf32>, tensor<384xf32>, tensor<384xf32>) -> tensor<-1x384x3x-1xf32>, tensor<384xf32>, tensor<384xf32>, tensor<384xf32>, tensor<384xf32>, tensor<-1xu8>
    (%910) = "pd_op.depthwise_conv2d" (%900, %911) {__l_trt__:true,data_format:"NCHW",dilations:[1,1],groups:384,padding_algorithm:"EXPLICIT",paddings:[2,2],stop_gradient:[false],strides:[1,1],struct_name:"/PPHGNetV2/HGV2_Stage_3/Sequential/HGV2_Block/LightConvBNAct_1/ConvBNAct_1/Conv2D/"} : (tensor<-1x384x3x-1xf32>, tensor<384x1x5x5xf32>) -> tensor<-1x384x3x-1xf32>
    (%912, %913, %914, %915, %916, %917) = "pd_op.batch_norm_" (%910, %918, %919, %920, %921) {__l_trt__:true,data_format:"NCHW",epsilon:1e-05,is_test:true,momentum:0.9,stop_gradient:[false,false,false,false,false,false],struct_name:"/PPHGNetV2/HGV2_Stage_3/Sequential/HGV2_Block/LightConvBNAct_1/ConvBNAct_1/BatchNorm2D/",trainable_statistics:false,use_global_stats:true} : (tensor<-1x384x3x-1xf32>, tensor<384xf32>, tensor<384xf32>, tensor<384xf32>, tensor<384xf32>) -> tensor<-1x384x3x-1xf32>, tensor<384xf32>, tensor<384xf32>, tensor<384xf32>, tensor<384xf32>, tensor<-1xu8>
    (%922) = "pd_op.relu" (%912) {__l_trt__:true,stop_gradient:[false],struct_name:"/PPHGNetV2/HGV2_Stage_3/Sequential/HGV2_Block/LightConvBNAct_1/ConvBNAct_1/ReLU/"} : (tensor<-1x384x3x-1xf32>) -> tensor<-1x384x3x-1xf32>
    (%923) = "pd_op.conv2d" (%922, %924) {__l_trt__:true,data_format:"NCHW",dilations:[1,1],groups:1,padding_algorithm:"EXPLICIT",paddings:[0,0],stop_gradient:[false],strides:[1,1],struct_name:"/PPHGNetV2/HGV2_Stage_3/Sequential/HGV2_Block/LightConvBNAct_2/ConvBNAct/Conv2D/"} : (tensor<-1x384x3x-1xf32>, tensor<384x384x1x1xf32>) -> tensor<-1x384x3x-1xf32>
    (%925, %926, %927, %928, %929, %930) = "pd_op.batch_norm_" (%923, %931, %932, %933, %934) {__l_trt__:true,data_format:"NCHW",epsilon:1e-05,is_test:true,momentum:0.9,stop_gradient:[false,false,false,false,false,false],struct_name:"/PPHGNetV2/HGV2_Stage_3/Sequential/HGV2_Block/LightConvBNAct_2/ConvBNAct/BatchNorm2D/",trainable_statistics:false,use_global_stats:true} : (tensor<-1x384x3x-1xf32>, tensor<384xf32>, tensor<384xf32>, tensor<384xf32>, tensor<384xf32>) -> tensor<-1x384x3x-1xf32>, tensor<384xf32>, tensor<384xf32>, tensor<384xf32>, tensor<384xf32>, tensor<-1xu8>
    (%935) = "pd_op.depthwise_conv2d" (%925, %936) {__l_trt__:true,data_format:"NCHW",dilations:[1,1],groups:384,padding_algorithm:"EXPLICIT",paddings:[2,2],stop_gradient:[false],strides:[1,1],struct_name:"/PPHGNetV2/HGV2_Stage_3/Sequential/HGV2_Block/LightConvBNAct_2/ConvBNAct_1/Conv2D/"} : (tensor<-1x384x3x-1xf32>, tensor<384x1x5x5xf32>) -> tensor<-1x384x3x-1xf32>
    (%937, %938, %939, %940, %941, %942) = "pd_op.batch_norm_" (%935, %943, %944, %945, %946) {__l_trt__:true,data_format:"NCHW",epsilon:1e-05,is_test:true,momentum:0.9,stop_gradient:[false,false,false,false,false,false],struct_name:"/PPHGNetV2/HGV2_Stage_3/Sequential/HGV2_Block/LightConvBNAct_2/ConvBNAct_1/BatchNorm2D/",trainable_statistics:false,use_global_stats:true} : (tensor<-1x384x3x-1xf32>, tensor<384xf32>, tensor<384xf32>, tensor<384xf32>, tensor<384xf32>) -> tensor<-1x384x3x-1xf32>, tensor<384xf32>, tensor<384xf32>, tensor<384xf32>, tensor<384xf32>, tensor<-1xu8>
    (%947) = "pd_op.relu" (%937) {__l_trt__:true,stop_gradient:[false],struct_name:"/PPHGNetV2/HGV2_Stage_3/Sequential/HGV2_Block/LightConvBNAct_2/ConvBNAct_1/ReLU/"} : (tensor<-1x384x3x-1xf32>) -> tensor<-1x384x3x-1xf32>
    (%948) = "pd_op.conv2d" (%947, %949) {__l_trt__:true,data_format:"NCHW",dilations:[1,1],groups:1,padding_algorithm:"EXPLICIT",paddings:[0,0],stop_gradient:[false],strides:[1,1],struct_name:"/PPHGNetV2/HGV2_Stage_3/Sequential/HGV2_Block/LightConvBNAct_3/ConvBNAct/Conv2D/"} : (tensor<-1x384x3x-1xf32>, tensor<384x384x1x1xf32>) -> tensor<-1x384x3x-1xf32>
    (%950, %951, %952, %953, %954, %955) = "pd_op.batch_norm_" (%948, %956, %957, %958, %959) {__l_trt__:true,data_format:"NCHW",epsilon:1e-05,is_test:true,momentum:0.9,stop_gradient:[false,false,false,false,false,false],struct_name:"/PPHGNetV2/HGV2_Stage_3/Sequential/HGV2_Block/LightConvBNAct_3/ConvBNAct/BatchNorm2D/",trainable_statistics:false,use_global_stats:true} : (tensor<-1x384x3x-1xf32>, tensor<384xf32>, tensor<384xf32>, tensor<384xf32>, tensor<384xf32>) -> tensor<-1x384x3x-1xf32>, tensor<384xf32>, tensor<384xf32>, tensor<384xf32>, tensor<384xf32>, tensor<-1xu8>
    (%960) = "pd_op.depthwise_conv2d" (%950, %961) {__l_trt__:true,data_format:"NCHW",dilations:[1,1],groups:384,padding_algorithm:"EXPLICIT",paddings:[2,2],stop_gradient:[false],strides:[1,1],struct_name:"/PPHGNetV2/HGV2_Stage_3/Sequential/HGV2_Block/LightConvBNAct_3/ConvBNAct_1/Conv2D/"} : (tensor<-1x384x3x-1xf32>, tensor<384x1x5x5xf32>) -> tensor<-1x384x3x-1xf32>
    (%962, %963, %964, %965, %966, %967) = "pd_op.batch_norm_" (%960, %968, %969, %970, %971) {__l_trt__:true,data_format:"NCHW",epsilon:1e-05,is_test:true,momentum:0.9,stop_gradient:[false,false,false,false,false,false],struct_name:"/PPHGNetV2/HGV2_Stage_3/Sequential/HGV2_Block/LightConvBNAct_3/ConvBNAct_1/BatchNorm2D/",trainable_statistics:false,use_global_stats:true} : (tensor<-1x384x3x-1xf32>, tensor<384xf32>, tensor<384xf32>, tensor<384xf32>, tensor<384xf32>) -> tensor<-1x384x3x-1xf32>, tensor<384xf32>, tensor<384xf32>, tensor<384xf32>, tensor<384xf32>, tensor<-1xu8>
    (%972) = "pd_op.relu" (%962) {__l_trt__:true,stop_gradient:[false],struct_name:"/PPHGNetV2/HGV2_Stage_3/Sequential/HGV2_Block/LightConvBNAct_3/ConvBNAct_1/ReLU/"} : (tensor<-1x384x3x-1xf32>) -> tensor<-1x384x3x-1xf32>
    (%973) = "pd_op.conv2d" (%972, %974) {__l_trt__:true,data_format:"NCHW",dilations:[1,1],groups:1,padding_algorithm:"EXPLICIT",paddings:[0,0],stop_gradient:[false],strides:[1,1],struct_name:"/PPHGNetV2/HGV2_Stage_3/Sequential/HGV2_Block/LightConvBNAct_4/ConvBNAct/Conv2D/"} : (tensor<-1x384x3x-1xf32>, tensor<384x384x1x1xf32>) -> tensor<-1x384x3x-1xf32>
    (%975, %976, %977, %978, %979, %980) = "pd_op.batch_norm_" (%973, %981, %982, %983, %984) {__l_trt__:true,data_format:"NCHW",epsilon:1e-05,is_test:true,momentum:0.9,stop_gradient:[false,false,false,false,false,false],struct_name:"/PPHGNetV2/HGV2_Stage_3/Sequential/HGV2_Block/LightConvBNAct_4/ConvBNAct/BatchNorm2D/",trainable_statistics:false,use_global_stats:true} : (tensor<-1x384x3x-1xf32>, tensor<384xf32>, tensor<384xf32>, tensor<384xf32>, tensor<384xf32>) -> tensor<-1x384x3x-1xf32>, tensor<384xf32>, tensor<384xf32>, tensor<384xf32>, tensor<384xf32>, tensor<-1xu8>
    (%985) = "pd_op.depthwise_conv2d" (%975, %986) {__l_trt__:true,data_format:"NCHW",dilations:[1,1],groups:384,padding_algorithm:"EXPLICIT",paddings:[2,2],stop_gradient:[false],strides:[1,1],struct_name:"/PPHGNetV2/HGV2_Stage_3/Sequential/HGV2_Block/LightConvBNAct_4/ConvBNAct_1/Conv2D/"} : (tensor<-1x384x3x-1xf32>, tensor<384x1x5x5xf32>) -> tensor<-1x384x3x-1xf32>
    (%987, %988, %989, %990, %991, %992) = "pd_op.batch_norm_" (%985, %993, %994, %995, %996) {__l_trt__:true,data_format:"NCHW",epsilon:1e-05,is_test:true,momentum:0.9,stop_gradient:[false,false,false,false,false,false],struct_name:"/PPHGNetV2/HGV2_Stage_3/Sequential/HGV2_Block/LightConvBNAct_4/ConvBNAct_1/BatchNorm2D/",trainable_statistics:false,use_global_stats:true} : (tensor<-1x384x3x-1xf32>, tensor<384xf32>, tensor<384xf32>, tensor<384xf32>, tensor<384xf32>) -> tensor<-1x384x3x-1xf32>, tensor<384xf32>, tensor<384xf32>, tensor<384xf32>, tensor<384xf32>, tensor<-1xu8>
    (%997) = "pd_op.relu" (%987) {__l_trt__:true,stop_gradient:[false],struct_name:"/PPHGNetV2/HGV2_Stage_3/Sequential/HGV2_Block/LightConvBNAct_4/ConvBNAct_1/ReLU/"} : (tensor<-1x384x3x-1xf32>) -> tensor<-1x384x3x-1xf32>
    (%998) = "pd_op.conv2d" (%997, %999) {__l_trt__:true,data_format:"NCHW",dilations:[1,1],groups:1,padding_algorithm:"EXPLICIT",paddings:[0,0],stop_gradient:[false],strides:[1,1],struct_name:"/PPHGNetV2/HGV2_Stage_3/Sequential/HGV2_Block/LightConvBNAct_5/ConvBNAct/Conv2D/"} : (tensor<-1x384x3x-1xf32>, tensor<384x384x1x1xf32>) -> tensor<-1x384x3x-1xf32>
    (%1000, %1001, %1002, %1003, %1004, %1005) = "pd_op.batch_norm_" (%998, %1006, %1007, %1008, %1009) {__l_trt__:true,data_format:"NCHW",epsilon:1e-05,is_test:true,momentum:0.9,stop_gradient:[false,false,false,false,false,false],struct_name:"/PPHGNetV2/HGV2_Stage_3/Sequential/HGV2_Block/LightConvBNAct_5/ConvBNAct/BatchNorm2D/",trainable_statistics:false,use_global_stats:true} : (tensor<-1x384x3x-1xf32>, tensor<384xf32>, tensor<384xf32>, tensor<384xf32>, tensor<384xf32>) -> tensor<-1x384x3x-1xf32>, tensor<384xf32>, tensor<384xf32>, tensor<384xf32>, tensor<384xf32>, tensor<-1xu8>
    (%1010) = "pd_op.depthwise_conv2d" (%1000, %1011) {__l_trt__:true,data_format:"NCHW",dilations:[1,1],groups:384,padding_algorithm:"EXPLICIT",paddings:[2,2],stop_gradient:[false],strides:[1,1],struct_name:"/PPHGNetV2/HGV2_Stage_3/Sequential/HGV2_Block/LightConvBNAct_5/ConvBNAct_1/Conv2D/"} : (tensor<-1x384x3x-1xf32>, tensor<384x1x5x5xf32>) -> tensor<-1x384x3x-1xf32>
    (%1012, %1013, %1014, %1015, %1016, %1017) = "pd_op.batch_norm_" (%1010, %1018, %1019, %1020, %1021) {__l_trt__:true,data_format:"NCHW",epsilon:1e-05,is_test:true,momentum:0.9,stop_gradient:[false,false,false,false,false,false],struct_name:"/PPHGNetV2/HGV2_Stage_3/Sequential/HGV2_Block/LightConvBNAct_5/ConvBNAct_1/BatchNorm2D/",trainable_statistics:false,use_global_stats:true} : (tensor<-1x384x3x-1xf32>, tensor<384xf32>, tensor<384xf32>, tensor<384xf32>, tensor<384xf32>) -> tensor<-1x384x3x-1xf32>, tensor<384xf32>, tensor<384xf32>, tensor<384xf32>, tensor<384xf32>, tensor<-1xu8>
    (%1022) = "pd_op.relu" (%1012) {__l_trt__:true,stop_gradient:[false],struct_name:"/PPHGNetV2/HGV2_Stage_3/Sequential/HGV2_Block/LightConvBNAct_5/ConvBNAct_1/ReLU/"} : (tensor<-1x384x3x-1xf32>) -> tensor<-1x384x3x-1xf32>
    (%1023) = "builtin.combine" (%863, %897, %922, %947, %972, %997, %1022) {__l_trt__:true,stop_gradient:[false],struct_name:"/PPHGNetV2/HGV2_Stage_3/Sequential/HGV2_Block/"} : (tensor<-1x1024x3x-1xf32>, tensor<-1x384x3x-1xf32>, tensor<-1x384x3x-1xf32>, tensor<-1x384x3x-1xf32>, tensor<-1x384x3x-1xf32>, tensor<-1x384x3x-1xf32>, tensor<-1x384x3x-1xf32>) -> vec[tensor<-1x1024x3x-1xf32>,tensor<-1x384x3x-1xf32>,tensor<-1x384x3x-1xf32>,tensor<-1x384x3x-1xf32>,tensor<-1x384x3x-1xf32>,tensor<-1x384x3x-1xf32>,tensor<-1x384x3x-1xf32>]
    (%1024) = "pd_op.concat" (%1023, %1025) {__l_trt__:true,stop_gradient:[false],struct_name:"/PPHGNetV2/HGV2_Stage_3/Sequential/HGV2_Block/"} : (vec[tensor<-1x1024x3x-1xf32>,tensor<-1x384x3x-1xf32>,tensor<-1x384x3x-1xf32>,tensor<-1x384x3x-1xf32>,tensor<-1x384x3x-1xf32>,tensor<-1x384x3x-1xf32>,tensor<-1x384x3x-1xf32>], tensor<1xi32>) -> tensor<-1x3328x3x-1xf32>
    (%1026) = "pd_op.conv2d" (%1024, %1027) {__l_trt__:true,data_format:"NCHW",dilations:[1,1],groups:1,padding_algorithm:"EXPLICIT",paddings:[0,0],stop_gradient:[false],strides:[1,1],struct_name:"/PPHGNetV2/HGV2_Stage_3/Sequential/HGV2_Block/ConvBNAct/Conv2D/"} : (tensor<-1x3328x3x-1xf32>, tensor<1024x3328x1x1xf32>) -> tensor<-1x1024x3x-1xf32>
    (%1028, %1029, %1030, %1031, %1032, %1033) = "pd_op.batch_norm_" (%1026, %1034, %1035, %1036, %1037) {__l_trt__:true,data_format:"NCHW",epsilon:1e-05,is_test:true,momentum:0.9,stop_gradient:[false,false,false,false,false,false],struct_name:"/PPHGNetV2/HGV2_Stage_3/Sequential/HGV2_Block/ConvBNAct/BatchNorm2D/",trainable_statistics:false,use_global_stats:true} : (tensor<-1x1024x3x-1xf32>, tensor<1024xf32>, tensor<1024xf32>, tensor<1024xf32>, tensor<1024xf32>) -> tensor<-1x1024x3x-1xf32>, tensor<1024xf32>, tensor<1024xf32>, tensor<1024xf32>, tensor<1024xf32>, tensor<-1xu8>
    (%1038) = "pd_op.relu" (%1028) {__l_trt__:true,stop_gradient:[false],struct_name:"/PPHGNetV2/HGV2_Stage_3/Sequential/HGV2_Block/ConvBNAct/ReLU/"} : (tensor<-1x1024x3x-1xf32>) -> tensor<-1x1024x3x-1xf32>
    (%1039) = "pd_op.conv2d" (%1038, %1040) {__l_trt__:true,data_format:"NCHW",dilations:[1,1],groups:1,padding_algorithm:"EXPLICIT",paddings:[0,0],stop_gradient:[false],strides:[1,1],struct_name:"/PPHGNetV2/HGV2_Stage_3/Sequential/HGV2_Block/ConvBNAct_1/Conv2D/"} : (tensor<-1x1024x3x-1xf32>, tensor<2048x1024x1x1xf32>) -> tensor<-1x2048x3x-1xf32>
    (%1041, %1042, %1043, %1044, %1045, %1046) = "pd_op.batch_norm_" (%1039, %1047, %1048, %1049, %1050) {__l_trt__:true,data_format:"NCHW",epsilon:1e-05,is_test:true,momentum:0.9,stop_gradient:[false,false,false,false,false,false],struct_name:"/PPHGNetV2/HGV2_Stage_3/Sequential/HGV2_Block/ConvBNAct_1/BatchNorm2D/",trainable_statistics:false,use_global_stats:true} : (tensor<-1x2048x3x-1xf32>, tensor<2048xf32>, tensor<2048xf32>, tensor<2048xf32>, tensor<2048xf32>) -> tensor<-1x2048x3x-1xf32>, tensor<2048xf32>, tensor<2048xf32>, tensor<2048xf32>, tensor<2048xf32>, tensor<-1xu8>
    (%1051) = "pd_op.relu" (%1041) {__l_trt__:true,stop_gradient:[false],struct_name:"/PPHGNetV2/HGV2_Stage_3/Sequential/HGV2_Block/ConvBNAct_1/ReLU/"} : (tensor<-1x2048x3x-1xf32>) -> tensor<-1x2048x3x-1xf32>
    (%1052) = "pd_op.pool2d" (%1051, %1053) {__l_trt__:true,adaptive:false,ceil_mode:false,data_format:"NCHW",exclusive:true,global_pooling:false,padding_algorithm:"EXPLICIT",paddings:[0,0],pooling_type:"avg",stop_gradient:[false],strides:[3,2],struct_name:"/PPHGNetV2/"} : (tensor<-1x2048x3x-1xf32>, tensor<2xi64>) -> tensor<-1x2048x1x-1xf32>
    (%1054) = "pd_op.assign" (%1052) {__l_trt__:true,stop_gradient:[true],struct_name:"/MultiHead/SequenceEncoder/EncoderWithSVTR/"} : (tensor<-1x2048x1x-1xf32>) -> tensor<-1x2048x1x-1xf32>
    (%1055) = "pd_op.conv2d" (%1054, %1056) {__l_trt__:true,data_format:"NCHW",dilations:[1,1],groups:1,padding_algorithm:"EXPLICIT",paddings:[0,1],stop_gradient:[false],strides:[1,1],struct_name:"/MultiHead/SequenceEncoder/EncoderWithSVTR/ConvBNLayer/Conv2D/"} : (tensor<-1x2048x1x-1xf32>, tensor<256x2048x1x3xf32>) -> tensor<-1x256x1x-1xf32>
    (%1057, %1058, %1059, %1060, %1061, %1062) = "pd_op.batch_norm_" (%1055, %1063, %1064, %1065, %1066) {__l_trt__:true,data_format:"NCHW",epsilon:1e-05,is_test:true,momentum:0.9,stop_gradient:[false,false,false,false,false,false],struct_name:"/MultiHead/SequenceEncoder/EncoderWithSVTR/ConvBNLayer/BatchNorm2D/",trainable_statistics:false,use_global_stats:true} : (tensor<-1x256x1x-1xf32>, tensor<256xf32>, tensor<256xf32>, tensor<256xf32>, tensor<256xf32>) -> tensor<-1x256x1x-1xf32>, tensor<256xf32>, tensor<256xf32>, tensor<256xf32>, tensor<256xf32>, tensor<-1xu8>
    (%1067) = "pd_op.swish" (%1057) {__l_trt__:true,stop_gradient:[false],struct_name:"/MultiHead/SequenceEncoder/EncoderWithSVTR/ConvBNLayer/Swish/"} : (tensor<-1x256x1x-1xf32>) -> tensor<-1x256x1x-1xf32>
    (%1068) = "pd_op.conv2d" (%1067, %1069) {__l_trt__:true,data_format:"NCHW",dilations:[1,1],groups:1,padding_algorithm:"EXPLICIT",paddings:[0,0],stop_gradient:[false],strides:[1,1],struct_name:"/MultiHead/SequenceEncoder/EncoderWithSVTR/ConvBNLayer_1/Conv2D/"} : (tensor<-1x256x1x-1xf32>, tensor<120x256x1x1xf32>) -> tensor<-1x120x1x-1xf32>
    (%1070, %1071, %1072, %1073, %1074, %1075) = "pd_op.batch_norm_" (%1068, %1076, %1077, %1078, %1079) {__l_trt__:true,data_format:"NCHW",epsilon:1e-05,is_test:true,momentum:0.9,stop_gradient:[false,false,false,false,false,false],struct_name:"/MultiHead/SequenceEncoder/EncoderWithSVTR/ConvBNLayer_1/BatchNorm2D/",trainable_statistics:false,use_global_stats:true} : (tensor<-1x120x1x-1xf32>, tensor<120xf32>, tensor<120xf32>, tensor<120xf32>, tensor<120xf32>) -> tensor<-1x120x1x-1xf32>, tensor<120xf32>, tensor<120xf32>, tensor<120xf32>, tensor<120xf32>, tensor<-1xu8>
    (%1080) = "pd_op.swish" (%1070) {__l_trt__:true,stop_gradient:[false],struct_name:"/MultiHead/SequenceEncoder/EncoderWithSVTR/ConvBNLayer_1/Swish/"} : (tensor<-1x120x1x-1xf32>) -> tensor<-1x120x1x-1xf32>
    (%1081) = "pd_op.shape64" (%1080) {__l_trt__:true,stop_gradient:[true],struct_name:"/MultiHead/SequenceEncoder/EncoderWithSVTR/"} : (tensor<-1x120x1x-1xf32>) -> tensor<4xi64>
    (%1082) = "pd_op.slice" (%1081, %1083, %1084) {__l_trt__:true,axes:[0],decrease_axis:[0],infer_flags:[1],stop_gradient:[true],struct_name:"/MultiHead/SequenceEncoder/EncoderWithSVTR/"} : (tensor<4xi64>, tensor<1xi64>, tensor<1xi64>) -> tensor<i64>
    (%1085) = "pd_op.flatten" (%1080) {__l_trt__:true,start_axis:2,stop_axis:3,stop_gradient:[false],struct_name:"/MultiHead/SequenceEncoder/EncoderWithSVTR/"} : (tensor<-1x120x1x-1xf32>) -> tensor<-1x120x-1xf32>
    (%1086) = "pd_op.transpose" (%1085) {__l_trt__:true,perm:[0,2,1],stop_gradient:[false],struct_name:"/MultiHead/SequenceEncoder/EncoderWithSVTR/"} : (tensor<-1x120x-1xf32>) -> tensor<-1x-1x120xf32>
    (%1087, %1088, %1089) = "pd_op.layer_norm" (%1086, %1090, %1091) {__l_trt__:true,begin_norm_axis:2,epsilon:1e-05,stop_gradient:[false,false,false],struct_name:"/MultiHead/SequenceEncoder/EncoderWithSVTR/Block/LayerNorm/"} : (tensor<-1x-1x120xf32>, tensor<120xf32>, tensor<120xf32>) -> tensor<-1x-1x120xf32>, tensor<-1x-1xf32>, tensor<-1x-1xf32>
    (%1092) = "pd_op.matmul" (%1087, %1093) {__l_trt__:true,stop_gradient:[false],struct_name:"/MultiHead/SequenceEncoder/EncoderWithSVTR/Block/Attention/Linear/",transpose_x:false,transpose_y:false} : (tensor<-1x-1x120xf32>, tensor<120x360xf32>) -> tensor<-1x-1x360xf32>
    (%1094) = "pd_op.add" (%1092, %1095) {__l_trt__:true,stop_gradient:[false],struct_name:"/MultiHead/SequenceEncoder/EncoderWithSVTR/Block/Attention/Linear/"} : (tensor<-1x-1x360xf32>, tensor<360xf32>) -> tensor<-1x-1x360xf32>
    (%1096) = "pd_op.reshape" (%1094, %1097) {__l_trt__:true,stop_gradient:[false],struct_name:"/MultiHead/SequenceEncoder/EncoderWithSVTR/Block/Attention/"} : (tensor<-1x-1x360xf32>, tensor<5xi64>) -> tensor<-1x-1x3x8x15xf32>
    (%1098) = "pd_op.transpose" (%1096) {__l_trt__:true,perm:[2,0,3,1,4],stop_gradient:[false],struct_name:"/MultiHead/SequenceEncoder/EncoderWithSVTR/Block/Attention/"} : (tensor<-1x-1x3x8x15xf32>) -> tensor<3x-1x8x-1x15xf32>
    (%1099) = "pd_op.slice" (%1098, %1100, %1101) {__l_trt__:true,axes:[0],decrease_axis:[0],infer_flags:[1],stop_gradient:[false],struct_name:"/MultiHead/SequenceEncoder/EncoderWithSVTR/Block/Attention/"} : (tensor<3x-1x8x-1x15xf32>, tensor<1xi64>, tensor<1xi64>) -> tensor<-1x8x-1x15xf32>
    (%1102) = "pd_op.scale" (%1099, %1103) {__l_trt__:true,bias:0,bias_after_scale:true,stop_gradient:[false],struct_name:"/MultiHead/SequenceEncoder/EncoderWithSVTR/Block/Attention/"} : (tensor<-1x8x-1x15xf32>, tensor<1xf32>) -> tensor<-1x8x-1x15xf32>
    (%1104) = "pd_op.slice" (%1098, %1105, %1106) {__l_trt__:true,axes:[0],decrease_axis:[0],infer_flags:[1],stop_gradient:[false],struct_name:"/MultiHead/SequenceEncoder/EncoderWithSVTR/Block/Attention/"} : (tensor<3x-1x8x-1x15xf32>, tensor<1xi64>, tensor<1xi64>) -> tensor<-1x8x-1x15xf32>
    (%1107) = "pd_op.slice" (%1098, %1108, %1109) {__l_trt__:true,axes:[0],decrease_axis:[0],infer_flags:[1],stop_gradient:[false],struct_name:"/MultiHead/SequenceEncoder/EncoderWithSVTR/Block/Attention/"} : (tensor<3x-1x8x-1x15xf32>, tensor<1xi64>, tensor<1xi64>) -> tensor<-1x8x-1x15xf32>
    (%1110) = "pd_op.transpose" (%1104) {__l_trt__:true,perm:[0,1,3,2],stop_gradient:[false],struct_name:"/MultiHead/SequenceEncoder/EncoderWithSVTR/Block/Attention/"} : (tensor<-1x8x-1x15xf32>) -> tensor<-1x8x15x-1xf32>
    (%1111) = "pd_op.matmul" (%1102, %1110) {__l_trt__:true,stop_gradient:[false],struct_name:"/MultiHead/SequenceEncoder/EncoderWithSVTR/Block/Attention/",transpose_x:false,transpose_y:false} : (tensor<-1x8x-1x15xf32>, tensor<-1x8x15x-1xf32>) -> tensor<-1x8x-1x-1xf32>
    (%1112) = "pd_op.softmax" (%1111) {__l_trt__:true,axis:-1,stop_gradient:[false],struct_name:"/MultiHead/SequenceEncoder/EncoderWithSVTR/Block/Attention/"} : (tensor<-1x8x-1x-1xf32>) -> tensor<-1x8x-1x-1xf32>
    (%1113, %1114) = "pd_op.dropout" (%1112, <<NULL VALUE>>, %1115) {__l_trt__:true,fix_seed:false,is_test:true,mode:"upscale_in_train",seed:0,stop_gradient:[false,false],struct_name:"/MultiHead/SequenceEncoder/EncoderWithSVTR/Block/Attention/Dropout/"} : (tensor<-1x8x-1x-1xf32>, <<NULL TYPE>>, tensor<1xf32>) -> tensor<-1x8x-1x-1xf32>, tensor<-1x8x-1x-1xu8>
    (%1116) = "pd_op.matmul" (%1113, %1107) {__l_trt__:true,stop_gradient:[false],struct_name:"/MultiHead/SequenceEncoder/EncoderWithSVTR/Block/Attention/",transpose_x:false,transpose_y:false} : (tensor<-1x8x-1x-1xf32>, tensor<-1x8x-1x15xf32>) -> tensor<-1x8x-1x15xf32>
    (%1117) = "pd_op.transpose" (%1116) {__l_trt__:true,perm:[0,2,1,3],stop_gradient:[false],struct_name:"/MultiHead/SequenceEncoder/EncoderWithSVTR/Block/Attention/"} : (tensor<-1x8x-1x15xf32>) -> tensor<-1x-1x8x15xf32>
    (%1118) = "pd_op.reshape" (%1117, %1119) {__l_trt__:true,stop_gradient:[false],struct_name:"/MultiHead/SequenceEncoder/EncoderWithSVTR/Block/Attention/"} : (tensor<-1x-1x8x15xf32>, tensor<3xi64>) -> tensor<-1x-1x120xf32>
    (%1120) = "pd_op.matmul" (%1118, %1121) {__l_trt__:true,stop_gradient:[false],struct_name:"/MultiHead/SequenceEncoder/EncoderWithSVTR/Block/Attention/Linear_1/",transpose_x:false,transpose_y:false} : (tensor<-1x-1x120xf32>, tensor<120x120xf32>) -> tensor<-1x-1x120xf32>
    (%1122) = "pd_op.add" (%1120, %1123) {__l_trt__:true,stop_gradient:[false],struct_name:"/MultiHead/SequenceEncoder/EncoderWithSVTR/Block/Attention/Linear_1/"} : (tensor<-1x-1x120xf32>, tensor<120xf32>) -> tensor<-1x-1x120xf32>
    (%1124, %1125) = "pd_op.dropout" (%1122, <<NULL VALUE>>, %1126) {__l_trt__:true,fix_seed:false,is_test:true,mode:"upscale_in_train",seed:0,stop_gradient:[false,false],struct_name:"/MultiHead/SequenceEncoder/EncoderWithSVTR/Block/Attention/Dropout_1/"} : (tensor<-1x-1x120xf32>, <<NULL TYPE>>, tensor<1xf32>) -> tensor<-1x-1x120xf32>, tensor<-1x-1x120xu8>
    (%1127) = "pd_op.add" (%1086, %1124) {__l_trt__:true,stop_gradient:[false],struct_name:"/MultiHead/SequenceEncoder/EncoderWithSVTR/Block/"} : (tensor<-1x-1x120xf32>, tensor<-1x-1x120xf32>) -> tensor<-1x-1x120xf32>
    (%1128, %1129, %1130) = "pd_op.layer_norm" (%1127, %1131, %1132) {__l_trt__:true,begin_norm_axis:2,epsilon:1e-05,stop_gradient:[false,false,false],struct_name:"/MultiHead/SequenceEncoder/EncoderWithSVTR/Block/LayerNorm_1/"} : (tensor<-1x-1x120xf32>, tensor<120xf32>, tensor<120xf32>) -> tensor<-1x-1x120xf32>, tensor<-1x-1xf32>, tensor<-1x-1xf32>
    (%1133) = "pd_op.matmul" (%1128, %1134) {__l_trt__:true,stop_gradient:[false],struct_name:"/MultiHead/SequenceEncoder/EncoderWithSVTR/Block/Mlp/Linear/",transpose_x:false,transpose_y:false} : (tensor<-1x-1x120xf32>, tensor<120x240xf32>) -> tensor<-1x-1x240xf32>
    (%1135) = "pd_op.add" (%1133, %1136) {__l_trt__:true,stop_gradient:[false],struct_name:"/MultiHead/SequenceEncoder/EncoderWithSVTR/Block/Mlp/Linear/"} : (tensor<-1x-1x240xf32>, tensor<240xf32>) -> tensor<-1x-1x240xf32>
    (%1137) = "pd_op.swish" (%1135) {__l_trt__:true,stop_gradient:[false],struct_name:"/MultiHead/SequenceEncoder/EncoderWithSVTR/Block/Mlp/Swish/"} : (tensor<-1x-1x240xf32>) -> tensor<-1x-1x240xf32>
    (%1138, %1139) = "pd_op.dropout" (%1137, <<NULL VALUE>>, %1140) {__l_trt__:true,fix_seed:false,is_test:true,mode:"upscale_in_train",seed:0,stop_gradient:[false,false],struct_name:"/MultiHead/SequenceEncoder/EncoderWithSVTR/Block/Mlp/Dropout/"} : (tensor<-1x-1x240xf32>, <<NULL TYPE>>, tensor<1xf32>) -> tensor<-1x-1x240xf32>, tensor<-1x-1x240xu8>
    (%1141) = "pd_op.matmul" (%1138, %1142) {__l_trt__:true,stop_gradient:[false],struct_name:"/MultiHead/SequenceEncoder/EncoderWithSVTR/Block/Mlp/Linear_1/",transpose_x:false,transpose_y:false} : (tensor<-1x-1x240xf32>, tensor<240x120xf32>) -> tensor<-1x-1x120xf32>
    (%1143) = "pd_op.add" (%1141, %1144) {__l_trt__:true,stop_gradient:[false],struct_name:"/MultiHead/SequenceEncoder/EncoderWithSVTR/Block/Mlp/Linear_1/"} : (tensor<-1x-1x120xf32>, tensor<120xf32>) -> tensor<-1x-1x120xf32>
    (%1145, %1146) = "pd_op.dropout" (%1143, <<NULL VALUE>>, %1147) {__l_trt__:true,fix_seed:false,is_test:true,mode:"upscale_in_train",seed:0,stop_gradient:[false,false],struct_name:"/MultiHead/SequenceEncoder/EncoderWithSVTR/Block/Mlp/Dropout_1/"} : (tensor<-1x-1x120xf32>, <<NULL TYPE>>, tensor<1xf32>) -> tensor<-1x-1x120xf32>, tensor<-1x-1x120xu8>
    (%1148) = "pd_op.add" (%1127, %1145) {__l_trt__:true,stop_gradient:[false],struct_name:"/MultiHead/SequenceEncoder/EncoderWithSVTR/Block/"} : (tensor<-1x-1x120xf32>, tensor<-1x-1x120xf32>) -> tensor<-1x-1x120xf32>
    (%1149, %1150, %1151) = "pd_op.layer_norm" (%1148, %1152, %1153) {__l_trt__:true,begin_norm_axis:2,epsilon:1e-05,stop_gradient:[false,false,false],struct_name:"/MultiHead/SequenceEncoder/EncoderWithSVTR/Block_1/LayerNorm/"} : (tensor<-1x-1x120xf32>, tensor<120xf32>, tensor<120xf32>) -> tensor<-1x-1x120xf32>, tensor<-1x-1xf32>, tensor<-1x-1xf32>
    (%1154) = "pd_op.matmul" (%1149, %1155) {__l_trt__:true,stop_gradient:[false],struct_name:"/MultiHead/SequenceEncoder/EncoderWithSVTR/Block_1/Attention/Linear/",transpose_x:false,transpose_y:false} : (tensor<-1x-1x120xf32>, tensor<120x360xf32>) -> tensor<-1x-1x360xf32>
    (%1156) = "pd_op.add" (%1154, %1157) {__l_trt__:true,stop_gradient:[false],struct_name:"/MultiHead/SequenceEncoder/EncoderWithSVTR/Block_1/Attention/Linear/"} : (tensor<-1x-1x360xf32>, tensor<360xf32>) -> tensor<-1x-1x360xf32>
    (%1158) = "pd_op.reshape" (%1156, %1159) {__l_trt__:true,stop_gradient:[false],struct_name:"/MultiHead/SequenceEncoder/EncoderWithSVTR/Block_1/Attention/"} : (tensor<-1x-1x360xf32>, tensor<5xi64>) -> tensor<-1x-1x3x8x15xf32>
    (%1160) = "pd_op.transpose" (%1158) {__l_trt__:true,perm:[2,0,3,1,4],stop_gradient:[false],struct_name:"/MultiHead/SequenceEncoder/EncoderWithSVTR/Block_1/Attention/"} : (tensor<-1x-1x3x8x15xf32>) -> tensor<3x-1x8x-1x15xf32>
    (%1161) = "pd_op.slice" (%1160, %1162, %1163) {__l_trt__:true,axes:[0],decrease_axis:[0],infer_flags:[1],stop_gradient:[false],struct_name:"/MultiHead/SequenceEncoder/EncoderWithSVTR/Block_1/Attention/"} : (tensor<3x-1x8x-1x15xf32>, tensor<1xi64>, tensor<1xi64>) -> tensor<-1x8x-1x15xf32>
    (%1164) = "pd_op.scale" (%1161, %1165) {__l_trt__:true,bias:0,bias_after_scale:true,stop_gradient:[false],struct_name:"/MultiHead/SequenceEncoder/EncoderWithSVTR/Block_1/Attention/"} : (tensor<-1x8x-1x15xf32>, tensor<1xf32>) -> tensor<-1x8x-1x15xf32>
    (%1166) = "pd_op.slice" (%1160, %1167, %1168) {__l_trt__:true,axes:[0],decrease_axis:[0],infer_flags:[1],stop_gradient:[false],struct_name:"/MultiHead/SequenceEncoder/EncoderWithSVTR/Block_1/Attention/"} : (tensor<3x-1x8x-1x15xf32>, tensor<1xi64>, tensor<1xi64>) -> tensor<-1x8x-1x15xf32>
    (%1169) = "pd_op.slice" (%1160, %1170, %1171) {__l_trt__:true,axes:[0],decrease_axis:[0],infer_flags:[1],stop_gradient:[false],struct_name:"/MultiHead/SequenceEncoder/EncoderWithSVTR/Block_1/Attention/"} : (tensor<3x-1x8x-1x15xf32>, tensor<1xi64>, tensor<1xi64>) -> tensor<-1x8x-1x15xf32>
    (%1172) = "pd_op.transpose" (%1166) {__l_trt__:true,perm:[0,1,3,2],stop_gradient:[false],struct_name:"/MultiHead/SequenceEncoder/EncoderWithSVTR/Block_1/Attention/"} : (tensor<-1x8x-1x15xf32>) -> tensor<-1x8x15x-1xf32>
    (%1173) = "pd_op.matmul" (%1164, %1172) {__l_trt__:true,stop_gradient:[false],struct_name:"/MultiHead/SequenceEncoder/EncoderWithSVTR/Block_1/Attention/",transpose_x:false,transpose_y:false} : (tensor<-1x8x-1x15xf32>, tensor<-1x8x15x-1xf32>) -> tensor<-1x8x-1x-1xf32>
    (%1174) = "pd_op.softmax" (%1173) {__l_trt__:true,axis:-1,stop_gradient:[false],struct_name:"/MultiHead/SequenceEncoder/EncoderWithSVTR/Block_1/Attention/"} : (tensor<-1x8x-1x-1xf32>) -> tensor<-1x8x-1x-1xf32>
    (%1175, %1176) = "pd_op.dropout" (%1174, <<NULL VALUE>>, %1177) {__l_trt__:true,fix_seed:false,is_test:true,mode:"upscale_in_train",seed:0,stop_gradient:[false,false],struct_name:"/MultiHead/SequenceEncoder/EncoderWithSVTR/Block_1/Attention/Dropout/"} : (tensor<-1x8x-1x-1xf32>, <<NULL TYPE>>, tensor<1xf32>) -> tensor<-1x8x-1x-1xf32>, tensor<-1x8x-1x-1xu8>
    (%1178) = "pd_op.matmul" (%1175, %1169) {__l_trt__:true,stop_gradient:[false],struct_name:"/MultiHead/SequenceEncoder/EncoderWithSVTR/Block_1/Attention/",transpose_x:false,transpose_y:false} : (tensor<-1x8x-1x-1xf32>, tensor<-1x8x-1x15xf32>) -> tensor<-1x8x-1x15xf32>
    (%1179) = "pd_op.transpose" (%1178) {__l_trt__:true,perm:[0,2,1,3],stop_gradient:[false],struct_name:"/MultiHead/SequenceEncoder/EncoderWithSVTR/Block_1/Attention/"} : (tensor<-1x8x-1x15xf32>) -> tensor<-1x-1x8x15xf32>
    (%1180) = "pd_op.reshape" (%1179, %1181) {__l_trt__:true,stop_gradient:[false],struct_name:"/MultiHead/SequenceEncoder/EncoderWithSVTR/Block_1/Attention/"} : (tensor<-1x-1x8x15xf32>, tensor<3xi64>) -> tensor<-1x-1x120xf32>
    (%1182) = "pd_op.matmul" (%1180, %1183) {__l_trt__:true,stop_gradient:[false],struct_name:"/MultiHead/SequenceEncoder/EncoderWithSVTR/Block_1/Attention/Linear_1/",transpose_x:false,transpose_y:false} : (tensor<-1x-1x120xf32>, tensor<120x120xf32>) -> tensor<-1x-1x120xf32>
    (%1184) = "pd_op.add" (%1182, %1185) {__l_trt__:true,stop_gradient:[false],struct_name:"/MultiHead/SequenceEncoder/EncoderWithSVTR/Block_1/Attention/Linear_1/"} : (tensor<-1x-1x120xf32>, tensor<120xf32>) -> tensor<-1x-1x120xf32>
    (%1186, %1187) = "pd_op.dropout" (%1184, <<NULL VALUE>>, %1188) {__l_trt__:true,fix_seed:false,is_test:true,mode:"upscale_in_train",seed:0,stop_gradient:[false,false],struct_name:"/MultiHead/SequenceEncoder/EncoderWithSVTR/Block_1/Attention/Dropout_1/"} : (tensor<-1x-1x120xf32>, <<NULL TYPE>>, tensor<1xf32>) -> tensor<-1x-1x120xf32>, tensor<-1x-1x120xu8>
    (%1189) = "pd_op.add" (%1148, %1186) {__l_trt__:true,stop_gradient:[false],struct_name:"/MultiHead/SequenceEncoder/EncoderWithSVTR/Block_1/"} : (tensor<-1x-1x120xf32>, tensor<-1x-1x120xf32>) -> tensor<-1x-1x120xf32>
    (%1190, %1191, %1192) = "pd_op.layer_norm" (%1189, %1193, %1194) {__l_trt__:true,begin_norm_axis:2,epsilon:1e-05,stop_gradient:[false,false,false],struct_name:"/MultiHead/SequenceEncoder/EncoderWithSVTR/Block_1/LayerNorm_1/"} : (tensor<-1x-1x120xf32>, tensor<120xf32>, tensor<120xf32>) -> tensor<-1x-1x120xf32>, tensor<-1x-1xf32>, tensor<-1x-1xf32>
    (%1195) = "pd_op.matmul" (%1190, %1196) {__l_trt__:true,stop_gradient:[false],struct_name:"/MultiHead/SequenceEncoder/EncoderWithSVTR/Block_1/Mlp/Linear/",transpose_x:false,transpose_y:false} : (tensor<-1x-1x120xf32>, tensor<120x240xf32>) -> tensor<-1x-1x240xf32>
    (%1197) = "pd_op.add" (%1195, %1198) {__l_trt__:true,stop_gradient:[false],struct_name:"/MultiHead/SequenceEncoder/EncoderWithSVTR/Block_1/Mlp/Linear/"} : (tensor<-1x-1x240xf32>, tensor<240xf32>) -> tensor<-1x-1x240xf32>
    (%1199) = "pd_op.swish" (%1197) {__l_trt__:true,stop_gradient:[false],struct_name:"/MultiHead/SequenceEncoder/EncoderWithSVTR/Block_1/Mlp/Swish/"} : (tensor<-1x-1x240xf32>) -> tensor<-1x-1x240xf32>
    (%1200, %1201) = "pd_op.dropout" (%1199, <<NULL VALUE>>, %1202) {__l_trt__:true,fix_seed:false,is_test:true,mode:"upscale_in_train",seed:0,stop_gradient:[false,false],struct_name:"/MultiHead/SequenceEncoder/EncoderWithSVTR/Block_1/Mlp/Dropout/"} : (tensor<-1x-1x240xf32>, <<NULL TYPE>>, tensor<1xf32>) -> tensor<-1x-1x240xf32>, tensor<-1x-1x240xu8>
    (%1203) = "pd_op.matmul" (%1200, %1204) {__l_trt__:true,stop_gradient:[false],struct_name:"/MultiHead/SequenceEncoder/EncoderWithSVTR/Block_1/Mlp/Linear_1/",transpose_x:false,transpose_y:false} : (tensor<-1x-1x240xf32>, tensor<240x120xf32>) -> tensor<-1x-1x120xf32>
    (%1205) = "pd_op.add" (%1203, %1206) {__l_trt__:true,stop_gradient:[false],struct_name:"/MultiHead/SequenceEncoder/EncoderWithSVTR/Block_1/Mlp/Linear_1/"} : (tensor<-1x-1x120xf32>, tensor<120xf32>) -> tensor<-1x-1x120xf32>
    (%1207, %1208) = "pd_op.dropout" (%1205, <<NULL VALUE>>, %1209) {__l_trt__:true,fix_seed:false,is_test:true,mode:"upscale_in_train",seed:0,stop_gradient:[false,false],struct_name:"/MultiHead/SequenceEncoder/EncoderWithSVTR/Block_1/Mlp/Dropout_1/"} : (tensor<-1x-1x120xf32>, <<NULL TYPE>>, tensor<1xf32>) -> tensor<-1x-1x120xf32>, tensor<-1x-1x120xu8>
    (%1210) = "pd_op.add" (%1189, %1207) {__l_trt__:true,stop_gradient:[false],struct_name:"/MultiHead/SequenceEncoder/EncoderWithSVTR/Block_1/"} : (tensor<-1x-1x120xf32>, tensor<-1x-1x120xf32>) -> tensor<-1x-1x120xf32>
    (%1211, %1212, %1213) = "pd_op.layer_norm" (%1210, %1214, %1215) {__l_trt__:true,begin_norm_axis:2,epsilon:1e-06,stop_gradient:[false,false,false],struct_name:"/MultiHead/SequenceEncoder/EncoderWithSVTR/LayerNorm/"} : (tensor<-1x-1x120xf32>, tensor<120xf32>, tensor<120xf32>) -> tensor<-1x-1x120xf32>, tensor<-1x-1xf32>, tensor<-1x-1xf32>
    (%1216) = "builtin.combine" (%1217, %1218, %1082, %1219) {__l_trt__:true,stop_gradient:[true],struct_name:"/MultiHead/SequenceEncoder/EncoderWithSVTR/"} : (tensor<i64>, tensor<i64>, tensor<i64>, tensor<i64>) -> vec[tensor<i64>,tensor<i64>,tensor<i64>,tensor<i64>]
    (%1220) = "pd_op.stack" (%1216) {__l_trt__:true,axis:0,stop_gradient:[true],struct_name:"/MultiHead/SequenceEncoder/EncoderWithSVTR/"} : (vec[tensor<i64>,tensor<i64>,tensor<i64>,tensor<i64>]) -> tensor<4xi64>
    (%1221) = "pd_op.reshape" (%1211, %1220) {__l_trt__:true,stop_gradient:[false],struct_name:"/MultiHead/SequenceEncoder/EncoderWithSVTR/"} : (tensor<-1x-1x120xf32>, tensor<4xi64>) -> tensor<-1x1x-1x120xf32>
    (%1222) = "pd_op.transpose" (%1221) {__l_trt__:true,perm:[0,3,1,2],stop_gradient:[false],struct_name:"/MultiHead/SequenceEncoder/EncoderWithSVTR/"} : (tensor<-1x1x-1x120xf32>) -> tensor<-1x120x1x-1xf32>
    (%1223) = "pd_op.conv2d" (%1222, %1224) {__l_trt__:true,data_format:"NCHW",dilations:[1,1],groups:1,padding_algorithm:"EXPLICIT",paddings:[0,0],stop_gradient:[false],strides:[1,1],struct_name:"/MultiHead/SequenceEncoder/EncoderWithSVTR/ConvBNLayer_2/Conv2D/"} : (tensor<-1x120x1x-1xf32>, tensor<2048x120x1x1xf32>) -> tensor<-1x2048x1x-1xf32>
    (%1225, %1226, %1227, %1228, %1229, %1230) = "pd_op.batch_norm_" (%1223, %1231, %1232, %1233, %1234) {__l_trt__:true,data_format:"NCHW",epsilon:1e-05,is_test:true,momentum:0.9,stop_gradient:[false,false,false,false,false,false],struct_name:"/MultiHead/SequenceEncoder/EncoderWithSVTR/ConvBNLayer_2/BatchNorm2D/",trainable_statistics:false,use_global_stats:true} : (tensor<-1x2048x1x-1xf32>, tensor<2048xf32>, tensor<2048xf32>, tensor<2048xf32>, tensor<2048xf32>) -> tensor<-1x2048x1x-1xf32>, tensor<2048xf32>, tensor<2048xf32>, tensor<2048xf32>, tensor<2048xf32>, tensor<-1xu8>
    (%1235) = "pd_op.swish" (%1225) {__l_trt__:true,stop_gradient:[false],struct_name:"/MultiHead/SequenceEncoder/EncoderWithSVTR/ConvBNLayer_2/Swish/"} : (tensor<-1x2048x1x-1xf32>) -> tensor<-1x2048x1x-1xf32>
    (%1236) = "builtin.combine" (%1054, %1235) {__l_trt__:true,stop_gradient:[false],struct_name:"/MultiHead/SequenceEncoder/EncoderWithSVTR/"} : (tensor<-1x2048x1x-1xf32>, tensor<-1x2048x1x-1xf32>) -> vec[tensor<-1x2048x1x-1xf32>,tensor<-1x2048x1x-1xf32>]
    (%1237) = "pd_op.concat" (%1236, %1238) {__l_trt__:true,stop_gradient:[false],struct_name:"/MultiHead/SequenceEncoder/EncoderWithSVTR/"} : (vec[tensor<-1x2048x1x-1xf32>,tensor<-1x2048x1x-1xf32>], tensor<1xi32>) -> tensor<-1x4096x1x-1xf32>
    (%1239) = "pd_op.conv2d" (%1237, %1240) {__l_trt__:true,data_format:"NCHW",dilations:[1,1],groups:1,padding_algorithm:"EXPLICIT",paddings:[0,1],stop_gradient:[false],strides:[1,1],struct_name:"/MultiHead/SequenceEncoder/EncoderWithSVTR/ConvBNLayer_3/Conv2D/"} : (tensor<-1x4096x1x-1xf32>, tensor<256x4096x1x3xf32>) -> tensor<-1x256x1x-1xf32>
    (%1241, %1242, %1243, %1244, %1245, %1246) = "pd_op.batch_norm_" (%1239, %1247, %1248, %1249, %1250) {__l_trt__:true,data_format:"NCHW",epsilon:1e-05,is_test:true,momentum:0.9,stop_gradient:[false,false,false,false,false,false],struct_name:"/MultiHead/SequenceEncoder/EncoderWithSVTR/ConvBNLayer_3/BatchNorm2D/",trainable_statistics:false,use_global_stats:true} : (tensor<-1x256x1x-1xf32>, tensor<256xf32>, tensor<256xf32>, tensor<256xf32>, tensor<256xf32>) -> tensor<-1x256x1x-1xf32>, tensor<256xf32>, tensor<256xf32>, tensor<256xf32>, tensor<256xf32>, tensor<-1xu8>
    (%1251) = "pd_op.swish" (%1241) {__l_trt__:true,stop_gradient:[false],struct_name:"/MultiHead/SequenceEncoder/EncoderWithSVTR/ConvBNLayer_3/Swish/"} : (tensor<-1x256x1x-1xf32>) -> tensor<-1x256x1x-1xf32>
    (%1252) = "pd_op.conv2d" (%1251, %1253) {__l_trt__:true,data_format:"NCHW",dilations:[1,1],groups:1,padding_algorithm:"EXPLICIT",paddings:[0,0],stop_gradient:[false],strides:[1,1],struct_name:"/MultiHead/SequenceEncoder/EncoderWithSVTR/ConvBNLayer_4/Conv2D/"} : (tensor<-1x256x1x-1xf32>, tensor<120x256x1x1xf32>) -> tensor<-1x120x1x-1xf32>
    (%1254, %1255, %1256, %1257, %1258, %1259) = "pd_op.batch_norm_" (%1252, %1260, %1261, %1262, %1263) {__l_trt__:true,data_format:"NCHW",epsilon:1e-05,is_test:true,momentum:0.9,stop_gradient:[false,false,false,false,false,false],struct_name:"/MultiHead/SequenceEncoder/EncoderWithSVTR/ConvBNLayer_4/BatchNorm2D/",trainable_statistics:false,use_global_stats:true} : (tensor<-1x120x1x-1xf32>, tensor<120xf32>, tensor<120xf32>, tensor<120xf32>, tensor<120xf32>) -> tensor<-1x120x1x-1xf32>, tensor<120xf32>, tensor<120xf32>, tensor<120xf32>, tensor<120xf32>, tensor<-1xu8>
    (%1264) = "pd_op.swish" (%1254) {__l_trt__:true,stop_gradient:[false],struct_name:"/MultiHead/SequenceEncoder/EncoderWithSVTR/ConvBNLayer_4/Swish/"} : (tensor<-1x120x1x-1xf32>) -> tensor<-1x120x1x-1xf32>
    (%1265) = "pd_op.squeeze" (%1264, %1266) {__l_trt__:true,stop_gradient:[false],struct_name:"/MultiHead/SequenceEncoder/Im2Seq/"} : (tensor<-1x120x1x-1xf32>, tensor<1xi64>) -> tensor<-1x120x-1xf32>
    (%1267) = "pd_op.transpose" (%1265) {__l_trt__:true,perm:[0,2,1],stop_gradient:[false],struct_name:"/MultiHead/SequenceEncoder/Im2Seq/"} : (tensor<-1x120x-1xf32>) -> tensor<-1x-1x120xf32>
    (%1268) = "pd_op.matmul" (%1267, %1269) {__l_trt__:true,stop_gradient:[false],struct_name:"/MultiHead/CTCHead/Linear/",transpose_x:false,transpose_y:false} : (tensor<-1x-1x120xf32>, tensor<120x18385xf32>) -> tensor<-1x-1x18385xf32>
    (%1270) = "pd_op.add" (%1268, %1271) {__l_trt__:true,stop_gradient:[false],struct_name:"/MultiHead/CTCHead/Linear/"} : (tensor<-1x-1x18385xf32>, tensor<18385xf32>) -> tensor<-1x-1x18385xf32>
    (%1272) = "pd_op.softmax" (%1270) {__l_trt__:true,axis:2,stop_gradient:[false],struct_name:"/MultiHead/CTCHead/"} : (tensor<-1x-1x18385xf32>) -> tensor<-1x-1x18385xf32>
    () = "cf.yield" (%1272) {} : (tensor<-1x-1x18385xf32>) -> 
})